2024-06-27 22:50:50,330 - dcgan_base - INFO - Program started
2024-06-27 22:50:50,336 - dcgan_base - INFO - ------------------------------------------------------------
2024-06-27 22:50:50,640 - dcgan_base - INFO - Discriminator created
2024-06-27 22:50:50,644 - dcgan_base - INFO - Model: "sequential"
_________________________________________________________________
 Layer (type)                Output Shape              Param #   
=================================================================
 conv2d (Conv2D)             (None, 32, 32, 64)        1792      
                                                                 
 leaky_re_lu (LeakyReLU)     (None, 32, 32, 64)        0         
                                                                 
 dropout (Dropout)           (None, 32, 32, 64)        0         
                                                                 
 conv2d_1 (Conv2D)           (None, 16, 16, 128)       73856     
                                                                 
 leaky_re_lu_1 (LeakyReLU)   (None, 16, 16, 128)       0         
                                                                 
 dropout_1 (Dropout)         (None, 16, 16, 128)       0         
                                                                 
 flatten (Flatten)           (None, 32768)             0         
                                                                 
 dense (Dense)               (None, 1)                 32769     
                                                                 
=================================================================
Total params: 108417 (423.50 KB)
Trainable params: 108417 (423.50 KB)
Non-trainable params: 0 (0.00 Byte)
_________________________________________________________________

2024-06-27 22:50:50,646 - dcgan_base - INFO - ------------------------------------------------------------
…
2024-06-27 22:51:32,599 - dcgan_base - INFO - ------------------------------------------------------------
2024-06-27 22:51:32,599 - dcgan_base - INFO - ------------------------------------------------------------
2024-06-27 22:51:32,667 - dcgan_base - INFO - Discriminator created
2024-06-27 22:51:32,667 - dcgan_base - INFO - Discriminator created
2024-06-27 22:51:32,671 - dcgan_base - INFO - Model: "sequential_2"
_________________________________________________________________
 Layer (type)                Output Shape              Param #   
=================================================================
 conv2d_2 (Conv2D)           (None, 32, 32, 64)        1792      
                                                                 
 leaky_re_lu_3 (LeakyReLU)   (None, 32, 32, 64)        0         
                                                                 
 dropout_2 (Dropout)         (None, 32, 32, 64)        0         
                                                                 
 conv2d_3 (Conv2D)           (None, 16, 16, 128)       73856     
                                                                 
 leaky_re_lu_4 (LeakyReLU)   (None, 16, 16, 128)       0         
                                                                 
 dropout_3 (Dropout)         (None, 16, 16, 128)       0         
                                                                 
 flatten_1 (Flatten)         (None, 32768)             0         
                                                                 
 dense_2 (Dense)             (None, 1)                 32769     
                                                                 
=================================================================
Total params: 108417 (423.50 KB)
Trainable params: 108417 (423.50 KB)
Non-trainable params: 0 (0.00 Byte)
_________________________________________________________________

2024-06-27 22:51:32,671 - dcgan_base - INFO - Model: "sequential_2"
_________________________________________________________________
 Layer (type)                Output Shape              Param #   
=================================================================
 conv2d_2 (Conv2D)           (None, 32, 32, 64)        1792      
                                                                 
 leaky_re_lu_3 (LeakyReLU)   (None, 32, 32, 64)        0         
                                                                 
 dropout_2 (Dropout)         (None, 32, 32, 64)        0         
                                                                 
 conv2d_3 (Conv2D)           (None, 16, 16, 128)       73856     
                                                                 
 leaky_re_lu_4 (LeakyReLU)   (None, 16, 16, 128)       0         
                                                                 
 dropout_3 (Dropout)         (None, 16, 16, 128)       0         
                                                                 
 flatten_1 (Flatten)         (None, 32768)             0         
                                                                 
 dense_2 (Dense)             (None, 1)                 32769     
                                                                 
=================================================================
Total params: 108417 (423.50 KB)
Trainable params: 108417 (423.50 KB)
Non-trainable params: 0 (0.00 Byte)
_________________________________________________________________

2024-06-27 22:51:32,675 - dcgan_base - INFO - ------------------------------------------------------------
2024-06-27 22:51:32,675 - dcgan_base - INFO - ------------------------------------------------------------
2024-06-27 22:51:32,912 - dcgan_base - INFO - Generator created
2024-06-27 22:51:32,912 - dcgan_base - INFO - Generator created
2024-06-27 22:51:32,919 - dcgan_base - INFO - Model: "sequential_3"
_________________________________________________________________
 Layer (type)                Output Shape              Param #   
=================================================================
 dense_3 (Dense)             (None, 16384)             1654784   
                                                                 
 leaky_re_lu_5 (LeakyReLU)   (None, 16384)             0         
                                                                 
 reshape_1 (Reshape)         (None, 8, 8, 256)         0         
                                                                 
 conv2d_transpose_1 (Conv2D  (None, 16, 16, 256)       1048832   
 Transpose)                                                      
                                                                 
 batch_normalization (Batch  (None, 16, 16, 256)       1024      
 Normalization)                                                  
                                                                 
 leaky_re_lu_6 (LeakyReLU)   (None, 16, 16, 256)       0         
                                                                 
 conv2d_transpose_2 (Conv2D  (None, 32, 32, 256)       1048832   
 Transpose)                                                      
                                                                 
 batch_normalization_1 (Bat  (None, 32, 32, 256)       1024      
 chNormalization)                                                
                                                                 
 leaky_re_lu_7 (LeakyReLU)   (None, 32, 32, 256)       0         
                                                                 
 conv2d_transpose_3 (Conv2D  (None, 64, 64, 128)       524416    
 Transpose)                                                      
                                                                 
 batch_normalization_2 (Bat  (None, 64, 64, 128)       512       
 chNormalization)                                                
                                                                 
 leaky_re_lu_8 (LeakyReLU)   (None, 64, 64, 128)       0         
                                                                 
 conv2d_transpose_4 (Conv2D  (None, 128, 128, 128)     262272    
 Transpose)                                                      
                                                                 
 batch_normalization_3 (Bat  (None, 128, 128, 128)     512       
 chNormalization)                                                
                                                                 
 leaky_re_lu_9 (LeakyReLU)   (None, 128, 128, 128)     0         
                                                                 
 conv2d_transpose_5 (Conv2D  (None, 256, 256, 64)      131136    
 Transpose)                                                      
                                                                 
 batch_normalization_4 (Bat  (None, 256, 256, 64)      256       
 chNormalization)                                                
                                                                 
 leaky_re_lu_10 (LeakyReLU)  (None, 256, 256, 64)      0         
                                                                 
 conv2d_4 (Conv2D)           (None, 256, 256, 3)       1731      
                                                                 
=================================================================
Total params: 4675331 (17.83 MB)
Trainable params: 4673667 (17.83 MB)
Non-trainable params: 1664 (6.50 KB)
_________________________________________________________________

2024-06-27 22:51:32,919 - dcgan_base - INFO - Model: "sequential_3"
_________________________________________________________________
 Layer (type)                Output Shape              Param #   
=================================================================
 dense_3 (Dense)             (None, 16384)             1654784   
                                                                 
 leaky_re_lu_5 (LeakyReLU)   (None, 16384)             0         
                                                                 
 reshape_1 (Reshape)         (None, 8, 8, 256)         0         
                                                                 
 conv2d_transpose_1 (Conv2D  (None, 16, 16, 256)       1048832   
 Transpose)                                                      
                                                                 
 batch_normalization (Batch  (None, 16, 16, 256)       1024      
 Normalization)                                                  
                                                                 
 leaky_re_lu_6 (LeakyReLU)   (None, 16, 16, 256)       0         
                                                                 
 conv2d_transpose_2 (Conv2D  (None, 32, 32, 256)       1048832   
 Transpose)                                                      
                                                                 
 batch_normalization_1 (Bat  (None, 32, 32, 256)       1024      
 chNormalization)                                                
                                                                 
 leaky_re_lu_7 (LeakyReLU)   (None, 32, 32, 256)       0         
                                                                 
 conv2d_transpose_3 (Conv2D  (None, 64, 64, 128)       524416    
 Transpose)                                                      
                                                                 
 batch_normalization_2 (Bat  (None, 64, 64, 128)       512       
 chNormalization)                                                
                                                                 
 leaky_re_lu_8 (LeakyReLU)   (None, 64, 64, 128)       0         
                                                                 
 conv2d_transpose_4 (Conv2D  (None, 128, 128, 128)     262272    
 Transpose)                                                      
                                                                 
 batch_normalization_3 (Bat  (None, 128, 128, 128)     512       
 chNormalization)                                                
                                                                 
 leaky_re_lu_9 (LeakyReLU)   (None, 128, 128, 128)     0         
                                                                 
 conv2d_transpose_5 (Conv2D  (None, 256, 256, 64)      131136    
 Transpose)                                                      
                                                                 
 batch_normalization_4 (Bat  (None, 256, 256, 64)      256       
 chNormalization)                                                
                                                                 
 leaky_re_lu_10 (LeakyReLU)  (None, 256, 256, 64)      0         
                                                                 
 conv2d_4 (Conv2D)           (None, 256, 256, 3)       1731      
                                                                 
=================================================================
Total params: 4675331 (17.83 MB)
Trainable params: 4673667 (17.83 MB)
Non-trainable params: 1664 (6.50 KB)
_________________________________________________________________

2024-06-27 22:51:32,922 - dcgan_base - INFO - ------------------------------------------------------------
…
2024-06-27 22:53:08,858 - dcgan_base - INFO - ------------------------------------------------------------
2024-06-27 22:53:08,942 - dcgan_base - INFO - Discriminator created
2024-06-27 22:53:08,942 - dcgan_base - INFO - Discriminator created
2024-06-27 22:53:08,942 - dcgan_base - INFO - Discriminator created
2024-06-27 22:53:08,948 - dcgan_base - INFO - Model: "sequential_5"
_________________________________________________________________
 Layer (type)                Output Shape              Param #   
=================================================================
 conv2d_5 (Conv2D)           (None, 32, 32, 64)        1792      
                                                                 
 leaky_re_lu_11 (LeakyReLU)  (None, 32, 32, 64)        0         
                                                                 
 dropout_4 (Dropout)         (None, 32, 32, 64)        0         
                                                                 
 conv2d_6 (Conv2D)           (None, 16, 16, 128)       73856     
                                                                 
 batch_normalization_5 (Bat  (None, 16, 16, 128)       512       
 chNormalization)                                                
                                                                 
 leaky_re_lu_12 (LeakyReLU)  (None, 16, 16, 128)       0         
                                                                 
 dropout_5 (Dropout)         (None, 16, 16, 128)       0         
                                                                 
 flatten_2 (Flatten)         (None, 32768)             0         
                                                                 
 dense_4 (Dense)             (None, 1)                 32769     
                                                                 
=================================================================
Total params: 108929 (425.50 KB)
Trainable params: 108673 (424.50 KB)
Non-trainable params: 256 (1.00 KB)
_________________________________________________________________

2024-06-27 22:53:08,948 - dcgan_base - INFO - Model: "sequential_5"
_________________________________________________________________
 Layer (type)                Output Shape              Param #   
=================================================================
 conv2d_5 (Conv2D)           (None, 32, 32, 64)        1792      
                                                                 
 leaky_re_lu_11 (LeakyReLU)  (None, 32, 32, 64)        0         
                                                                 
 dropout_4 (Dropout)         (None, 32, 32, 64)        0         
                                                                 
 conv2d_6 (Conv2D)           (None, 16, 16, 128)       73856     
                                                                 
 batch_normalization_5 (Bat  (None, 16, 16, 128)       512       
 chNormalization)                                                
                                                                 
 leaky_re_lu_12 (LeakyReLU)  (None, 16, 16, 128)       0         
                                                                 
 dropout_5 (Dropout)         (None, 16, 16, 128)       0         
                                                                 
 flatten_2 (Flatten)         (None, 32768)             0         
                                                                 
 dense_4 (Dense)             (None, 1)                 32769     
                                                                 
=================================================================
Total params: 108929 (425.50 KB)
Trainable params: 108673 (424.50 KB)
Non-trainable params: 256 (1.00 KB)
_________________________________________________________________

2024-06-27 22:53:08,948 - dcgan_base - INFO - Model: "sequential_5"
_________________________________________________________________
 Layer (type)                Output Shape              Param #   
=================================================================
 conv2d_5 (Conv2D)           (None, 32, 32, 64)        1792      
                                                                 
 leaky_re_lu_11 (LeakyReLU)  (None, 32, 32, 64)        0         
                                                                 
 dropout_4 (Dropout)         (None, 32, 32, 64)        0         
                                                                 
 conv2d_6 (Conv2D)           (None, 16, 16, 128)       73856     
                                                                 
 batch_normalization_5 (Bat  (None, 16, 16, 128)       512       
 chNormalization)                                                
                                                                 
 leaky_re_lu_12 (LeakyReLU)  (None, 16, 16, 128)       0         
                                                                 
 dropout_5 (Dropout)         (None, 16, 16, 128)       0         
                                                                 
 flatten_2 (Flatten)         (None, 32768)             0         
                                                                 
 dense_4 (Dense)             (None, 1)                 32769     
                                                                 
=================================================================
Total params: 108929 (425.50 KB)
Trainable params: 108673 (424.50 KB)
Non-trainable params: 256 (1.00 KB)
_________________________________________________________________

2024-06-27 22:53:08,955 - dcgan_base - INFO - ------------------------------------------------------------
2024-06-27 22:53:08,955 - dcgan_base - INFO - ------------------------------------------------------------
2024-06-27 22:53:08,955 - dcgan_base - INFO - ------------------------------------------------------------
2024-06-27 22:53:09,182 - dcgan_base - INFO - Generator created
2024-06-27 22:53:09,182 - dcgan_base - INFO - Generator created
2024-06-27 22:53:09,182 - dcgan_base - INFO - Generator created
2024-06-27 22:53:09,191 - dcgan_base - INFO - Model: "sequential_6"
_________________________________________________________________
 Layer (type)                Output Shape              Param #   
=================================================================
 dense_5 (Dense)             (None, 16384)             1654784   
                                                                 
 leaky_re_lu_13 (LeakyReLU)  (None, 16384)             0         
                                                                 
 reshape_2 (Reshape)         (None, 8, 8, 256)         0         
                                                                 
 conv2d_transpose_6 (Conv2D  (None, 16, 16, 256)       1048832   
 Transpose)                                                      
                                                                 
 batch_normalization_6 (Bat  (None, 16, 16, 256)       1024      
 chNormalization)                                                
                                                                 
 leaky_re_lu_14 (LeakyReLU)  (None, 16, 16, 256)       0         
                                                                 
 conv2d_transpose_7 (Conv2D  (None, 32, 32, 256)       1048832   
 Transpose)                                                      
                                                                 
 batch_normalization_7 (Bat  (None, 32, 32, 256)       1024      
 chNormalization)                                                
                                                                 
 leaky_re_lu_15 (LeakyReLU)  (None, 32, 32, 256)       0         
                                                                 
 conv2d_transpose_8 (Conv2D  (None, 64, 64, 128)       524416    
 Transpose)                                                      
                                                                 
 batch_normalization_8 (Bat  (None, 64, 64, 128)       512       
 chNormalization)                                                
                                                                 
 leaky_re_lu_16 (LeakyReLU)  (None, 64, 64, 128)       0         
                                                                 
 conv2d_transpose_9 (Conv2D  (None, 128, 128, 128)     262272    
 Transpose)                                                      
                                                                 
 batch_normalization_9 (Bat  (None, 128, 128, 128)     512       
 chNormalization)                                                
                                                                 
 leaky_re_lu_17 (LeakyReLU)  (None, 128, 128, 128)     0         
                                                                 
 conv2d_transpose_10 (Conv2  (None, 256, 256, 64)      131136    
 DTranspose)                                                     
                                                                 
 batch_normalization_10 (Ba  (None, 256, 256, 64)      256       
 tchNormalization)                                               
                                                                 
 leaky_re_lu_18 (LeakyReLU)  (None, 256, 256, 64)      0         
                                                                 
 conv2d_7 (Conv2D)           (None, 256, 256, 3)       1731      
                                                                 
=================================================================
Total params: 4675331 (17.83 MB)
Trainable params: 4673667 (17.83 MB)
Non-trainable params: 1664 (6.50 KB)
_________________________________________________________________

2024-06-27 22:53:09,191 - dcgan_base - INFO - Model: "sequential_6"
_________________________________________________________________
 Layer (type)                Output Shape              Param #   
=================================================================
 dense_5 (Dense)             (None, 16384)             1654784   
                                                                 
 leaky_re_lu_13 (LeakyReLU)  (None, 16384)             0         
                                                                 
 reshape_2 (Reshape)         (None, 8, 8, 256)         0         
                                                                 
 conv2d_transpose_6 (Conv2D  (None, 16, 16, 256)       1048832   
 Transpose)                                                      
                                                                 
 batch_normalization_6 (Bat  (None, 16, 16, 256)       1024      
 chNormalization)                                                
                                                                 
 leaky_re_lu_14 (LeakyReLU)  (None, 16, 16, 256)       0         
                                                                 
 conv2d_transpose_7 (Conv2D  (None, 32, 32, 256)       1048832   
 Transpose)                                                      
                                                                 
 batch_normalization_7 (Bat  (None, 32, 32, 256)       1024      
 chNormalization)                                                
                                                                 
 leaky_re_lu_15 (LeakyReLU)  (None, 32, 32, 256)       0         
                                                                 
 conv2d_transpose_8 (Conv2D  (None, 64, 64, 128)       524416    
 Transpose)                                                      
                                                                 
 batch_normalization_8 (Bat  (None, 64, 64, 128)       512       
 chNormalization)                                                
                                                                 
 leaky_re_lu_16 (LeakyReLU)  (None, 64, 64, 128)       0         
                                                                 
 conv2d_transpose_9 (Conv2D  (None, 128, 128, 128)     262272    
 Transpose)                                                      
                                                                 
 batch_normalization_9 (Bat  (None, 128, 128, 128)     512       
 chNormalization)                                                
                                                                 
 leaky_re_lu_17 (LeakyReLU)  (None, 128, 128, 128)     0         
                                                                 
 conv2d_transpose_10 (Conv2  (None, 256, 256, 64)      131136    
 DTranspose)                                                     
                                                                 
 batch_normalization_10 (Ba  (None, 256, 256, 64)      256       
 tchNormalization)                                               
                                                                 
 leaky_re_lu_18 (LeakyReLU)  (None, 256, 256, 64)      0         
                                                                 
 conv2d_7 (Conv2D)           (None, 256, 256, 3)       1731      
                                                                 
=================================================================
Total params: 4675331 (17.83 MB)
Trainable params: 4673667 (17.83 MB)
Non-trainable params: 1664 (6.50 KB)
_________________________________________________________________

2024-06-27 22:53:09,191 - dcgan_base - INFO - Model: "sequential_6"
_________________________________________________________________
 Layer (type)                Output Shape              Param #   
=================================================================
 dense_5 (Dense)             (None, 16384)             1654784   
                                                                 
 leaky_re_lu_13 (LeakyReLU)  (None, 16384)             0         
                                                                 
 reshape_2 (Reshape)         (None, 8, 8, 256)         0         
                                                                 
 conv2d_transpose_6 (Conv2D  (None, 16, 16, 256)       1048832   
 Transpose)                                                      
                                                                 
 batch_normalization_6 (Bat  (None, 16, 16, 256)       1024      
 chNormalization)                                                
                                                                 
 leaky_re_lu_14 (LeakyReLU)  (None, 16, 16, 256)       0         
                                                                 
 conv2d_transpose_7 (Conv2D  (None, 32, 32, 256)       1048832   
 Transpose)                                                      
                                                                 
 batch_normalization_7 (Bat  (None, 32, 32, 256)       1024      
 chNormalization)                                                
                                                                 
 leaky_re_lu_15 (LeakyReLU)  (None, 32, 32, 256)       0         
                                                                 
 conv2d_transpose_8 (Conv2D  (None, 64, 64, 128)       524416    
 Transpose)                                                      
                                                                 
 batch_normalization_8 (Bat  (None, 64, 64, 128)       512       
 chNormalization)                                                
                                                                 
 leaky_re_lu_16 (LeakyReLU)  (None, 64, 64, 128)       0         
                                                                 
 conv2d_transpose_9 (Conv2D  (None, 128, 128, 128)     262272    
 Transpose)                                                      
                                                                 
 batch_normalization_9 (Bat  (None, 128, 128, 128)     512       
 chNormalization)                                                
                                                                 
 leaky_re_lu_17 (LeakyReLU)  (None, 128, 128, 128)     0         
                                                                 
 conv2d_transpose_10 (Conv2  (None, 256, 256, 64)      131136    
 DTranspose)                                                     
                                                                 
 batch_normalization_10 (Ba  (None, 256, 256, 64)      256       
 tchNormalization)                                               
                                                                 
 leaky_re_lu_18 (LeakyReLU)  (None, 256, 256, 64)      0         
                                                                 
 conv2d_7 (Conv2D)           (None, 256, 256, 3)       1731      
                                                                 
=================================================================
Total params: 4675331 (17.83 MB)
Trainable params: 4673667 (17.83 MB)
Non-trainable params: 1664 (6.50 KB)
_________________________________________________________________

2024-06-27 22:53:09,197 - dcgan_base - INFO - ------------------------------------------------------------
…
2024-06-27 22:54:06,424 - dcgan_base - INFO - ------------------------------------------------------------
2024-06-27 22:54:06,505 - dcgan_base - INFO - Discriminator created
2024-06-27 22:54:06,505 - dcgan_base - INFO - Discriminator created
2024-06-27 22:54:06,505 - dcgan_base - INFO - Discriminator created
2024-06-27 22:54:06,505 - dcgan_base - INFO - Discriminator created
2024-06-27 22:54:06,512 - dcgan_base - INFO - Model: "sequential_8"
_________________________________________________________________
 Layer (type)                Output Shape              Param #   
=================================================================
 conv2d_8 (Conv2D)           (None, 32, 32, 64)        1792      
                                                                 
 leaky_re_lu_19 (LeakyReLU)  (None, 32, 32, 64)        0         
                                                                 
 dropout_6 (Dropout)         (None, 32, 32, 64)        0         
                                                                 
 conv2d_9 (Conv2D)           (None, 16, 16, 128)       73856     
                                                                 
 batch_normalization_11 (Ba  (None, 16, 16, 128)       512       
 tchNormalization)                                               
                                                                 
 leaky_re_lu_20 (LeakyReLU)  (None, 16, 16, 128)       0         
                                                                 
 dropout_7 (Dropout)         (None, 16, 16, 128)       0         
                                                                 
 flatten_3 (Flatten)         (None, 32768)             0         
                                                                 
 dense_6 (Dense)             (None, 1)                 32769     
                                                                 
=================================================================
Total params: 108929 (425.50 KB)
Trainable params: 108673 (424.50 KB)
Non-trainable params: 256 (1.00 KB)
_________________________________________________________________

2024-06-27 22:54:06,512 - dcgan_base - INFO - Model: "sequential_8"
_________________________________________________________________
 Layer (type)                Output Shape              Param #   
=================================================================
 conv2d_8 (Conv2D)           (None, 32, 32, 64)        1792      
                                                                 
 leaky_re_lu_19 (LeakyReLU)  (None, 32, 32, 64)        0         
                                                                 
 dropout_6 (Dropout)         (None, 32, 32, 64)        0         
                                                                 
 conv2d_9 (Conv2D)           (None, 16, 16, 128)       73856     
                                                                 
 batch_normalization_11 (Ba  (None, 16, 16, 128)       512       
 tchNormalization)                                               
                                                                 
 leaky_re_lu_20 (LeakyReLU)  (None, 16, 16, 128)       0         
                                                                 
 dropout_7 (Dropout)         (None, 16, 16, 128)       0         
                                                                 
 flatten_3 (Flatten)         (None, 32768)             0         
                                                                 
 dense_6 (Dense)             (None, 1)                 32769     
                                                                 
=================================================================
Total params: 108929 (425.50 KB)
Trainable params: 108673 (424.50 KB)
Non-trainable params: 256 (1.00 KB)
_________________________________________________________________

2024-06-27 22:54:06,512 - dcgan_base - INFO - Model: "sequential_8"
_________________________________________________________________
 Layer (type)                Output Shape              Param #   
=================================================================
 conv2d_8 (Conv2D)           (None, 32, 32, 64)        1792      
                                                                 
 leaky_re_lu_19 (LeakyReLU)  (None, 32, 32, 64)        0         
                                                                 
 dropout_6 (Dropout)         (None, 32, 32, 64)        0         
                                                                 
 conv2d_9 (Conv2D)           (None, 16, 16, 128)       73856     
                                                                 
 batch_normalization_11 (Ba  (None, 16, 16, 128)       512       
 tchNormalization)                                               
                                                                 
 leaky_re_lu_20 (LeakyReLU)  (None, 16, 16, 128)       0         
                                                                 
 dropout_7 (Dropout)         (None, 16, 16, 128)       0         
                                                                 
 flatten_3 (Flatten)         (None, 32768)             0         
                                                                 
 dense_6 (Dense)             (None, 1)                 32769     
                                                                 
=================================================================
Total params: 108929 (425.50 KB)
Trainable params: 108673 (424.50 KB)
Non-trainable params: 256 (1.00 KB)
_________________________________________________________________

2024-06-27 22:54:06,512 - dcgan_base - INFO - Model: "sequential_8"
_________________________________________________________________
 Layer (type)                Output Shape              Param #   
=================================================================
 conv2d_8 (Conv2D)           (None, 32, 32, 64)        1792      
                                                                 
 leaky_re_lu_19 (LeakyReLU)  (None, 32, 32, 64)        0         
                                                                 
 dropout_6 (Dropout)         (None, 32, 32, 64)        0         
                                                                 
 conv2d_9 (Conv2D)           (None, 16, 16, 128)       73856     
                                                                 
 batch_normalization_11 (Ba  (None, 16, 16, 128)       512       
 tchNormalization)                                               
                                                                 
 leaky_re_lu_20 (LeakyReLU)  (None, 16, 16, 128)       0         
                                                                 
 dropout_7 (Dropout)         (None, 16, 16, 128)       0         
                                                                 
 flatten_3 (Flatten)         (None, 32768)             0         
                                                                 
 dense_6 (Dense)             (None, 1)                 32769     
                                                                 
=================================================================
Total params: 108929 (425.50 KB)
Trainable params: 108673 (424.50 KB)
Non-trainable params: 256 (1.00 KB)
_________________________________________________________________

2024-06-27 22:54:06,518 - dcgan_base - INFO - ------------------------------------------------------------
…
2024-06-27 22:54:06,518 - dcgan_base - INFO - ------------------------------------------------------------
2024-06-27 22:54:06,742 - dcgan_base - INFO - Generator created
2024-06-27 22:54:06,742 - dcgan_base - INFO - Generator created
2024-06-27 22:54:06,742 - dcgan_base - INFO - Generator created
2024-06-27 22:54:06,742 - dcgan_base - INFO - Generator created
2024-06-27 22:54:06,750 - dcgan_base - INFO - Model: "sequential_9"
_________________________________________________________________
 Layer (type)                Output Shape              Param #   
=================================================================
 dense_7 (Dense)             (None, 16384)             1654784   
                                                                 
 leaky_re_lu_21 (LeakyReLU)  (None, 16384)             0         
                                                                 
 reshape_3 (Reshape)         (None, 8, 8, 256)         0         
                                                                 
 conv2d_transpose_11 (Conv2  (None, 16, 16, 256)       1048832   
 DTranspose)                                                     
                                                                 
 batch_normalization_12 (Ba  (None, 16, 16, 256)       1024      
 tchNormalization)                                               
                                                                 
 leaky_re_lu_22 (LeakyReLU)  (None, 16, 16, 256)       0         
                                                                 
 conv2d_transpose_12 (Conv2  (None, 32, 32, 256)       1048832   
 DTranspose)                                                     
                                                                 
 batch_normalization_13 (Ba  (None, 32, 32, 256)       1024      
 tchNormalization)                                               
                                                                 
 leaky_re_lu_23 (LeakyReLU)  (None, 32, 32, 256)       0         
                                                                 
 conv2d_transpose_13 (Conv2  (None, 64, 64, 128)       524416    
 DTranspose)                                                     
                                                                 
 batch_normalization_14 (Ba  (None, 64, 64, 128)       512       
 tchNormalization)                                               
                                                                 
 leaky_re_lu_24 (LeakyReLU)  (None, 64, 64, 128)       0         
                                                                 
 conv2d_transpose_14 (Conv2  (None, 128, 128, 128)     262272    
 DTranspose)                                                     
                                                                 
 batch_normalization_15 (Ba  (None, 128, 128, 128)     512       
 tchNormalization)                                               
                                                                 
 leaky_re_lu_25 (LeakyReLU)  (None, 128, 128, 128)     0         
                                                                 
 conv2d_transpose_15 (Conv2  (None, 256, 256, 64)      131136    
 DTranspose)                                                     
                                                                 
 batch_normalization_16 (Ba  (None, 256, 256, 64)      256       
 tchNormalization)                                               
                                                                 
 leaky_re_lu_26 (LeakyReLU)  (None, 256, 256, 64)      0         
                                                                 
 conv2d_10 (Conv2D)          (None, 256, 256, 3)       1731      
                                                                 
=================================================================
Total params: 4675331 (17.83 MB)
Trainable params: 4673667 (17.83 MB)
Non-trainable params: 1664 (6.50 KB)
_________________________________________________________________

2024-06-27 22:54:06,750 - dcgan_base - INFO - Model: "sequential_9"
_________________________________________________________________
 Layer (type)                Output Shape              Param #   
=================================================================
 dense_7 (Dense)             (None, 16384)             1654784   
                                                                 
 leaky_re_lu_21 (LeakyReLU)  (None, 16384)             0         
                                                                 
 reshape_3 (Reshape)         (None, 8, 8, 256)         0         
                                                                 
 conv2d_transpose_11 (Conv2  (None, 16, 16, 256)       1048832   
 DTranspose)                                                     
                                                                 
 batch_normalization_12 (Ba  (None, 16, 16, 256)       1024      
 tchNormalization)                                               
                                                                 
 leaky_re_lu_22 (LeakyReLU)  (None, 16, 16, 256)       0         
                                                                 
 conv2d_transpose_12 (Conv2  (None, 32, 32, 256)       1048832   
 DTranspose)                                                     
                                                                 
 batch_normalization_13 (Ba  (None, 32, 32, 256)       1024      
 tchNormalization)                                               
                                                                 
 leaky_re_lu_23 (LeakyReLU)  (None, 32, 32, 256)       0         
                                                                 
 conv2d_transpose_13 (Conv2  (None, 64, 64, 128)       524416    
 DTranspose)                                                     
                                                                 
 batch_normalization_14 (Ba  (None, 64, 64, 128)       512       
 tchNormalization)                                               
                                                                 
 leaky_re_lu_24 (LeakyReLU)  (None, 64, 64, 128)       0         
                                                                 
 conv2d_transpose_14 (Conv2  (None, 128, 128, 128)     262272    
 DTranspose)                                                     
                                                                 
 batch_normalization_15 (Ba  (None, 128, 128, 128)     512       
 tchNormalization)                                               
                                                                 
 leaky_re_lu_25 (LeakyReLU)  (None, 128, 128, 128)     0         
                                                                 
 conv2d_transpose_15 (Conv2  (None, 256, 256, 64)      131136    
 DTranspose)                                                     
                                                                 
 batch_normalization_16 (Ba  (None, 256, 256, 64)      256       
 tchNormalization)                                               
                                                                 
 leaky_re_lu_26 (LeakyReLU)  (None, 256, 256, 64)      0         
                                                                 
 conv2d_10 (Conv2D)          (None, 256, 256, 3)       1731      
                                                                 
=================================================================
Total params: 4675331 (17.83 MB)
Trainable params: 4673667 (17.83 MB)
Non-trainable params: 1664 (6.50 KB)
_________________________________________________________________

2024-06-27 22:54:06,750 - dcgan_base - INFO - Model: "sequential_9"
_________________________________________________________________
 Layer (type)                Output Shape              Param #   
=================================================================
 dense_7 (Dense)             (None, 16384)             1654784   
                                                                 
 leaky_re_lu_21 (LeakyReLU)  (None, 16384)             0         
                                                                 
 reshape_3 (Reshape)         (None, 8, 8, 256)         0         
                                                                 
 conv2d_transpose_11 (Conv2  (None, 16, 16, 256)       1048832   
 DTranspose)                                                     
                                                                 
 batch_normalization_12 (Ba  (None, 16, 16, 256)       1024      
 tchNormalization)                                               
                                                                 
 leaky_re_lu_22 (LeakyReLU)  (None, 16, 16, 256)       0         
                                                                 
 conv2d_transpose_12 (Conv2  (None, 32, 32, 256)       1048832   
 DTranspose)                                                     
                                                                 
 batch_normalization_13 (Ba  (None, 32, 32, 256)       1024      
 tchNormalization)                                               
                                                                 
 leaky_re_lu_23 (LeakyReLU)  (None, 32, 32, 256)       0         
                                                                 
 conv2d_transpose_13 (Conv2  (None, 64, 64, 128)       524416    
 DTranspose)                                                     
                                                                 
 batch_normalization_14 (Ba  (None, 64, 64, 128)       512       
 tchNormalization)                                               
                                                                 
 leaky_re_lu_24 (LeakyReLU)  (None, 64, 64, 128)       0         
                                                                 
 conv2d_transpose_14 (Conv2  (None, 128, 128, 128)     262272    
 DTranspose)                                                     
                                                                 
 batch_normalization_15 (Ba  (None, 128, 128, 128)     512       
 tchNormalization)                                               
                                                                 
 leaky_re_lu_25 (LeakyReLU)  (None, 128, 128, 128)     0         
                                                                 
 conv2d_transpose_15 (Conv2  (None, 256, 256, 64)      131136    
 DTranspose)                                                     
                                                                 
 batch_normalization_16 (Ba  (None, 256, 256, 64)      256       
 tchNormalization)                                               
                                                                 
 leaky_re_lu_26 (LeakyReLU)  (None, 256, 256, 64)      0         
                                                                 
 conv2d_10 (Conv2D)          (None, 256, 256, 3)       1731      
                                                                 
=================================================================
Total params: 4675331 (17.83 MB)
Trainable params: 4673667 (17.83 MB)
Non-trainable params: 1664 (6.50 KB)
_________________________________________________________________

2024-06-27 22:54:06,750 - dcgan_base - INFO - Model: "sequential_9"
_________________________________________________________________
 Layer (type)                Output Shape              Param #   
=================================================================
 dense_7 (Dense)             (None, 16384)             1654784   
                                                                 
 leaky_re_lu_21 (LeakyReLU)  (None, 16384)             0         
                                                                 
 reshape_3 (Reshape)         (None, 8, 8, 256)         0         
                                                                 
 conv2d_transpose_11 (Conv2  (None, 16, 16, 256)       1048832   
 DTranspose)                                                     
                                                                 
 batch_normalization_12 (Ba  (None, 16, 16, 256)       1024      
 tchNormalization)                                               
                                                                 
 leaky_re_lu_22 (LeakyReLU)  (None, 16, 16, 256)       0         
                                                                 
 conv2d_transpose_12 (Conv2  (None, 32, 32, 256)       1048832   
 DTranspose)                                                     
                                                                 
 batch_normalization_13 (Ba  (None, 32, 32, 256)       1024      
 tchNormalization)                                               
                                                                 
 leaky_re_lu_23 (LeakyReLU)  (None, 32, 32, 256)       0         
                                                                 
 conv2d_transpose_13 (Conv2  (None, 64, 64, 128)       524416    
 DTranspose)                                                     
                                                                 
 batch_normalization_14 (Ba  (None, 64, 64, 128)       512       
 tchNormalization)                                               
                                                                 
 leaky_re_lu_24 (LeakyReLU)  (None, 64, 64, 128)       0         
                                                                 
 conv2d_transpose_14 (Conv2  (None, 128, 128, 128)     262272    
 DTranspose)                                                     
                                                                 
 batch_normalization_15 (Ba  (None, 128, 128, 128)     512       
 tchNormalization)                                               
                                                                 
 leaky_re_lu_25 (LeakyReLU)  (None, 128, 128, 128)     0         
                                                                 
 conv2d_transpose_15 (Conv2  (None, 256, 256, 64)      131136    
 DTranspose)                                                     
                                                                 
 batch_normalization_16 (Ba  (None, 256, 256, 64)      256       
 tchNormalization)                                               
                                                                 
 leaky_re_lu_26 (LeakyReLU)  (None, 256, 256, 64)      0         
                                                                 
 conv2d_10 (Conv2D)          (None, 256, 256, 3)       1731      
                                                                 
=================================================================
Total params: 4675331 (17.83 MB)
Trainable params: 4673667 (17.83 MB)
Non-trainable params: 1664 (6.50 KB)
_________________________________________________________________

2024-06-27 22:54:06,756 - dcgan_base - INFO - ------------------------------------------------------------
…
2024-06-27 22:55:14,300 - dcgan_base - INFO - Discriminator created
2024-06-27 22:55:14,300 - dcgan_base - INFO - Discriminator created
2024-06-27 22:55:14,300 - dcgan_base - INFO - Discriminator created
2024-06-27 22:55:14,300 - dcgan_base - INFO - Discriminator created
2024-06-27 22:55:14,300 - dcgan_base - INFO - Discriminator created
2024-06-27 22:55:14,309 - dcgan_base - INFO - Model: "sequential_11"
_________________________________________________________________
 Layer (type)                Output Shape              Param #   
=================================================================
 conv2d_11 (Conv2D)          (None, 32, 32, 64)        1792      
                                                                 
 leaky_re_lu_27 (LeakyReLU)  (None, 32, 32, 64)        0         
                                                                 
 dropout_8 (Dropout)         (None, 32, 32, 64)        0         
                                                                 
 conv2d_12 (Conv2D)          (None, 16, 16, 128)       73856     
                                                                 
 batch_normalization_17 (Ba  (None, 16, 16, 128)       512       
 tchNormalization)                                               
                                                                 
 leaky_re_lu_28 (LeakyReLU)  (None, 16, 16, 128)       0         
                                                                 
 dropout_9 (Dropout)         (None, 16, 16, 128)       0         
                                                                 
 flatten_4 (Flatten)         (None, 32768)             0         
                                                                 
 dense_8 (Dense)             (None, 1)                 32769     
                                                                 
=================================================================
Total params: 108929 (425.50 KB)
Trainable params: 108673 (424.50 KB)
Non-trainable params: 256 (1.00 KB)
_________________________________________________________________

2024-06-27 22:55:14,309 - dcgan_base - INFO - Model: "sequential_11"
_________________________________________________________________
 Layer (type)                Output Shape              Param #   
=================================================================
 conv2d_11 (Conv2D)          (None, 32, 32, 64)        1792      
                                                                 
 leaky_re_lu_27 (LeakyReLU)  (None, 32, 32, 64)        0         
                                                                 
 dropout_8 (Dropout)         (None, 32, 32, 64)        0         
                                                                 
 conv2d_12 (Conv2D)          (None, 16, 16, 128)       73856     
                                                                 
 batch_normalization_17 (Ba  (None, 16, 16, 128)       512       
 tchNormalization)                                               
                                                                 
 leaky_re_lu_28 (LeakyReLU)  (None, 16, 16, 128)       0         
                                                                 
 dropout_9 (Dropout)         (None, 16, 16, 128)       0         
                                                                 
 flatten_4 (Flatten)         (None, 32768)             0         
                                                                 
 dense_8 (Dense)             (None, 1)                 32769     
                                                                 
=================================================================
Total params: 108929 (425.50 KB)
Trainable params: 108673 (424.50 KB)
Non-trainable params: 256 (1.00 KB)
_________________________________________________________________

2024-06-27 22:55:14,309 - dcgan_base - INFO - Model: "sequential_11"
_________________________________________________________________
 Layer (type)                Output Shape              Param #   
=================================================================
 conv2d_11 (Conv2D)          (None, 32, 32, 64)        1792      
                                                                 
 leaky_re_lu_27 (LeakyReLU)  (None, 32, 32, 64)        0         
                                                                 
 dropout_8 (Dropout)         (None, 32, 32, 64)        0         
                                                                 
 conv2d_12 (Conv2D)          (None, 16, 16, 128)       73856     
                                                                 
 batch_normalization_17 (Ba  (None, 16, 16, 128)       512       
 tchNormalization)                                               
                                                                 
 leaky_re_lu_28 (LeakyReLU)  (None, 16, 16, 128)       0         
                                                                 
 dropout_9 (Dropout)         (None, 16, 16, 128)       0         
                                                                 
 flatten_4 (Flatten)         (None, 32768)             0         
                                                                 
 dense_8 (Dense)             (None, 1)                 32769     
                                                                 
=================================================================
Total params: 108929 (425.50 KB)
Trainable params: 108673 (424.50 KB)
Non-trainable params: 256 (1.00 KB)
_________________________________________________________________

2024-06-27 22:55:14,309 - dcgan_base - INFO - Model: "sequential_11"
_________________________________________________________________
 Layer (type)                Output Shape              Param #   
=================================================================
 conv2d_11 (Conv2D)          (None, 32, 32, 64)        1792      
                                                                 
 leaky_re_lu_27 (LeakyReLU)  (None, 32, 32, 64)        0         
                                                                 
 dropout_8 (Dropout)         (None, 32, 32, 64)        0         
                                                                 
 conv2d_12 (Conv2D)          (None, 16, 16, 128)       73856     
                                                                 
 batch_normalization_17 (Ba  (None, 16, 16, 128)       512       
 tchNormalization)                                               
                                                                 
 leaky_re_lu_28 (LeakyReLU)  (None, 16, 16, 128)       0         
                                                                 
 dropout_9 (Dropout)         (None, 16, 16, 128)       0         
                                                                 
 flatten_4 (Flatten)         (None, 32768)             0         
                                                                 
 dense_8 (Dense)             (None, 1)                 32769     
                                                                 
=================================================================
Total params: 108929 (425.50 KB)
Trainable params: 108673 (424.50 KB)
Non-trainable params: 256 (1.00 KB)
_________________________________________________________________

2024-06-27 22:55:14,309 - dcgan_base - INFO - Model: "sequential_11"
_________________________________________________________________
 Layer (type)                Output Shape              Param #   
=================================================================
 conv2d_11 (Conv2D)          (None, 32, 32, 64)        1792      
                                                                 
 leaky_re_lu_27 (LeakyReLU)  (None, 32, 32, 64)        0         
                                                                 
 dropout_8 (Dropout)         (None, 32, 32, 64)        0         
                                                                 
 conv2d_12 (Conv2D)          (None, 16, 16, 128)       73856     
                                                                 
 batch_normalization_17 (Ba  (None, 16, 16, 128)       512       
 tchNormalization)                                               
                                                                 
 leaky_re_lu_28 (LeakyReLU)  (None, 16, 16, 128)       0         
                                                                 
 dropout_9 (Dropout)         (None, 16, 16, 128)       0         
                                                                 
 flatten_4 (Flatten)         (None, 32768)             0         
                                                                 
 dense_8 (Dense)             (None, 1)                 32769     
                                                                 
=================================================================
Total params: 108929 (425.50 KB)
Trainable params: 108673 (424.50 KB)
Non-trainable params: 256 (1.00 KB)
_________________________________________________________________

2024-06-27 22:55:14,317 - dcgan_base - INFO - ------------------------------------------------------------
…
2024-06-27 22:55:14,548 - dcgan_base - INFO - Generator created
2024-06-27 22:55:14,548 - dcgan_base - INFO - Generator created
2024-06-27 22:55:14,548 - dcgan_base - INFO - Generator created
2024-06-27 22:55:14,548 - dcgan_base - INFO - Generator created
2024-06-27 22:55:14,548 - dcgan_base - INFO - Generator created
2024-06-27 22:55:14,558 - dcgan_base - INFO - Model: "sequential_12"
_________________________________________________________________
 Layer (type)                Output Shape              Param #   
=================================================================
 dense_9 (Dense)             (None, 16384)             1654784   
                                                                 
 leaky_re_lu_29 (LeakyReLU)  (None, 16384)             0         
                                                                 
 reshape_4 (Reshape)         (None, 8, 8, 256)         0         
                                                                 
 conv2d_transpose_16 (Conv2  (None, 16, 16, 256)       1048832   
 DTranspose)                                                     
                                                                 
 batch_normalization_18 (Ba  (None, 16, 16, 256)       1024      
 tchNormalization)                                               
                                                                 
 leaky_re_lu_30 (LeakyReLU)  (None, 16, 16, 256)       0         
                                                                 
 conv2d_transpose_17 (Conv2  (None, 32, 32, 256)       1048832   
 DTranspose)                                                     
                                                                 
 batch_normalization_19 (Ba  (None, 32, 32, 256)       1024      
 tchNormalization)                                               
                                                                 
 leaky_re_lu_31 (LeakyReLU)  (None, 32, 32, 256)       0         
                                                                 
 conv2d_transpose_18 (Conv2  (None, 64, 64, 128)       524416    
 DTranspose)                                                     
                                                                 
 batch_normalization_20 (Ba  (None, 64, 64, 128)       512       
 tchNormalization)                                               
                                                                 
 leaky_re_lu_32 (LeakyReLU)  (None, 64, 64, 128)       0         
                                                                 
 conv2d_transpose_19 (Conv2  (None, 128, 128, 128)     262272    
 DTranspose)                                                     
                                                                 
 batch_normalization_21 (Ba  (None, 128, 128, 128)     512       
 tchNormalization)                                               
                                                                 
 leaky_re_lu_33 (LeakyReLU)  (None, 128, 128, 128)     0         
                                                                 
 conv2d_transpose_20 (Conv2  (None, 256, 256, 64)      131136    
 DTranspose)                                                     
                                                                 
 batch_normalization_22 (Ba  (None, 256, 256, 64)      256       
 tchNormalization)                                               
                                                                 
 leaky_re_lu_34 (LeakyReLU)  (None, 256, 256, 64)      0         
                                                                 
 conv2d_13 (Conv2D)          (None, 256, 256, 3)       1731      
                                                                 
=================================================================
Total params: 4675331 (17.83 MB)
Trainable params: 4673667 (17.83 MB)
Non-trainable params: 1664 (6.50 KB)
_________________________________________________________________

2024-06-27 22:55:14,558 - dcgan_base - INFO - Model: "sequential_12"
_________________________________________________________________
 Layer (type)                Output Shape              Param #   
=================================================================
 dense_9 (Dense)             (None, 16384)             1654784   
                                                                 
 leaky_re_lu_29 (LeakyReLU)  (None, 16384)             0         
                                                                 
 reshape_4 (Reshape)         (None, 8, 8, 256)         0         
                                                                 
 conv2d_transpose_16 (Conv2  (None, 16, 16, 256)       1048832   
 DTranspose)                                                     
                                                                 
 batch_normalization_18 (Ba  (None, 16, 16, 256)       1024      
 tchNormalization)                                               
                                                                 
 leaky_re_lu_30 (LeakyReLU)  (None, 16, 16, 256)       0         
                                                                 
 conv2d_transpose_17 (Conv2  (None, 32, 32, 256)       1048832   
 DTranspose)                                                     
                                                                 
 batch_normalization_19 (Ba  (None, 32, 32, 256)       1024      
 tchNormalization)                                               
                                                                 
 leaky_re_lu_31 (LeakyReLU)  (None, 32, 32, 256)       0         
                                                                 
 conv2d_transpose_18 (Conv2  (None, 64, 64, 128)       524416    
 DTranspose)                                                     
                                                                 
 batch_normalization_20 (Ba  (None, 64, 64, 128)       512       
 tchNormalization)                                               
                                                                 
 leaky_re_lu_32 (LeakyReLU)  (None, 64, 64, 128)       0         
                                                                 
 conv2d_transpose_19 (Conv2  (None, 128, 128, 128)     262272    
 DTranspose)                                                     
                                                                 
 batch_normalization_21 (Ba  (None, 128, 128, 128)     512       
 tchNormalization)                                               
                                                                 
 leaky_re_lu_33 (LeakyReLU)  (None, 128, 128, 128)     0         
                                                                 
 conv2d_transpose_20 (Conv2  (None, 256, 256, 64)      131136    
 DTranspose)                                                     
                                                                 
 batch_normalization_22 (Ba  (None, 256, 256, 64)      256       
 tchNormalization)                                               
                                                                 
 leaky_re_lu_34 (LeakyReLU)  (None, 256, 256, 64)      0         
                                                                 
 conv2d_13 (Conv2D)          (None, 256, 256, 3)       1731      
                                                                 
=================================================================
Total params: 4675331 (17.83 MB)
Trainable params: 4673667 (17.83 MB)
Non-trainable params: 1664 (6.50 KB)
_________________________________________________________________

2024-06-27 22:55:14,558 - dcgan_base - INFO - Model: "sequential_12"
_________________________________________________________________
 Layer (type)                Output Shape              Param #   
=================================================================
 dense_9 (Dense)             (None, 16384)             1654784   
                                                                 
 leaky_re_lu_29 (LeakyReLU)  (None, 16384)             0         
                                                                 
 reshape_4 (Reshape)         (None, 8, 8, 256)         0         
                                                                 
 conv2d_transpose_16 (Conv2  (None, 16, 16, 256)       1048832   
 DTranspose)                                                     
                                                                 
 batch_normalization_18 (Ba  (None, 16, 16, 256)       1024      
 tchNormalization)                                               
                                                                 
 leaky_re_lu_30 (LeakyReLU)  (None, 16, 16, 256)       0         
                                                                 
 conv2d_transpose_17 (Conv2  (None, 32, 32, 256)       1048832   
 DTranspose)                                                     
                                                                 
 batch_normalization_19 (Ba  (None, 32, 32, 256)       1024      
 tchNormalization)                                               
                                                                 
 leaky_re_lu_31 (LeakyReLU)  (None, 32, 32, 256)       0         
                                                                 
 conv2d_transpose_18 (Conv2  (None, 64, 64, 128)       524416    
 DTranspose)                                                     
                                                                 
 batch_normalization_20 (Ba  (None, 64, 64, 128)       512       
 tchNormalization)                                               
                                                                 
 leaky_re_lu_32 (LeakyReLU)  (None, 64, 64, 128)       0         
                                                                 
 conv2d_transpose_19 (Conv2  (None, 128, 128, 128)     262272    
 DTranspose)                                                     
                                                                 
 batch_normalization_21 (Ba  (None, 128, 128, 128)     512       
 tchNormalization)                                               
                                                                 
 leaky_re_lu_33 (LeakyReLU)  (None, 128, 128, 128)     0         
                                                                 
 conv2d_transpose_20 (Conv2  (None, 256, 256, 64)      131136    
 DTranspose)                                                     
                                                                 
 batch_normalization_22 (Ba  (None, 256, 256, 64)      256       
 tchNormalization)                                               
                                                                 
 leaky_re_lu_34 (LeakyReLU)  (None, 256, 256, 64)      0         
                                                                 
 conv2d_13 (Conv2D)          (None, 256, 256, 3)       1731      
                                                                 
=================================================================
Total params: 4675331 (17.83 MB)
Trainable params: 4673667 (17.83 MB)
Non-trainable params: 1664 (6.50 KB)
_________________________________________________________________

2024-06-27 22:55:14,558 - dcgan_base - INFO - Model: "sequential_12"
_________________________________________________________________
 Layer (type)                Output Shape              Param #   
=================================================================
 dense_9 (Dense)             (None, 16384)             1654784   
                                                                 
 leaky_re_lu_29 (LeakyReLU)  (None, 16384)             0         
                                                                 
 reshape_4 (Reshape)         (None, 8, 8, 256)         0         
                                                                 
 conv2d_transpose_16 (Conv2  (None, 16, 16, 256)       1048832   
 DTranspose)                                                     
                                                                 
 batch_normalization_18 (Ba  (None, 16, 16, 256)       1024      
 tchNormalization)                                               
                                                                 
 leaky_re_lu_30 (LeakyReLU)  (None, 16, 16, 256)       0         
                                                                 
 conv2d_transpose_17 (Conv2  (None, 32, 32, 256)       1048832   
 DTranspose)                                                     
                                                                 
 batch_normalization_19 (Ba  (None, 32, 32, 256)       1024      
 tchNormalization)                                               
                                                                 
 leaky_re_lu_31 (LeakyReLU)  (None, 32, 32, 256)       0         
                                                                 
 conv2d_transpose_18 (Conv2  (None, 64, 64, 128)       524416    
 DTranspose)                                                     
                                                                 
 batch_normalization_20 (Ba  (None, 64, 64, 128)       512       
 tchNormalization)                                               
                                                                 
 leaky_re_lu_32 (LeakyReLU)  (None, 64, 64, 128)       0         
                                                                 
 conv2d_transpose_19 (Conv2  (None, 128, 128, 128)     262272    
 DTranspose)                                                     
                                                                 
 batch_normalization_21 (Ba  (None, 128, 128, 128)     512       
 tchNormalization)                                               
                                                                 
 leaky_re_lu_33 (LeakyReLU)  (None, 128, 128, 128)     0         
                                                                 
 conv2d_transpose_20 (Conv2  (None, 256, 256, 64)      131136    
 DTranspose)                                                     
                                                                 
 batch_normalization_22 (Ba  (None, 256, 256, 64)      256       
 tchNormalization)                                               
                                                                 
 leaky_re_lu_34 (LeakyReLU)  (None, 256, 256, 64)      0         
                                                                 
 conv2d_13 (Conv2D)          (None, 256, 256, 3)       1731      
                                                                 
=================================================================
Total params: 4675331 (17.83 MB)
Trainable params: 4673667 (17.83 MB)
Non-trainable params: 1664 (6.50 KB)
_________________________________________________________________

2024-06-27 22:55:14,558 - dcgan_base - INFO - Model: "sequential_12"
_________________________________________________________________
 Layer (type)                Output Shape              Param #   
=================================================================
 dense_9 (Dense)             (None, 16384)             1654784   
                                                                 
 leaky_re_lu_29 (LeakyReLU)  (None, 16384)             0         
                                                                 
 reshape_4 (Reshape)         (None, 8, 8, 256)         0         
                                                                 
 conv2d_transpose_16 (Conv2  (None, 16, 16, 256)       1048832   
 DTranspose)                                                     
                                                                 
 batch_normalization_18 (Ba  (None, 16, 16, 256)       1024      
 tchNormalization)                                               
                                                                 
 leaky_re_lu_30 (LeakyReLU)  (None, 16, 16, 256)       0         
                                                                 
 conv2d_transpose_17 (Conv2  (None, 32, 32, 256)       1048832   
 DTranspose)                                                     
                                                                 
 batch_normalization_19 (Ba  (None, 32, 32, 256)       1024      
 tchNormalization)                                               
                                                                 
 leaky_re_lu_31 (LeakyReLU)  (None, 32, 32, 256)       0         
                                                                 
 conv2d_transpose_18 (Conv2  (None, 64, 64, 128)       524416    
 DTranspose)                                                     
                                                                 
 batch_normalization_20 (Ba  (None, 64, 64, 128)       512       
 tchNormalization)                                               
                                                                 
 leaky_re_lu_32 (LeakyReLU)  (None, 64, 64, 128)       0         
                                                                 
 conv2d_transpose_19 (Conv2  (None, 128, 128, 128)     262272    
 DTranspose)                                                     
                                                                 
 batch_normalization_21 (Ba  (None, 128, 128, 128)     512       
 tchNormalization)                                               
                                                                 
 leaky_re_lu_33 (LeakyReLU)  (None, 128, 128, 128)     0         
                                                                 
 conv2d_transpose_20 (Conv2  (None, 256, 256, 64)      131136    
 DTranspose)                                                     
                                                                 
 batch_normalization_22 (Ba  (None, 256, 256, 64)      256       
 tchNormalization)                                               
                                                                 
 leaky_re_lu_34 (LeakyReLU)  (None, 256, 256, 64)      0         
                                                                 
 conv2d_13 (Conv2D)          (None, 256, 256, 3)       1731      
                                                                 
=================================================================
Total params: 4675331 (17.83 MB)
Trainable params: 4673667 (17.83 MB)
Non-trainable params: 1664 (6.50 KB)
_________________________________________________________________

2024-06-27 22:55:14,566 - dcgan_base - INFO - ------------------------------------------------------------
…
2024-06-27 22:57:13,193 - dcgan_base - INFO - Discriminator created
2024-06-27 22:57:13,193 - dcgan_base - INFO - Discriminator created
2024-06-27 22:57:13,193 - dcgan_base - INFO - Discriminator created
2024-06-27 22:57:13,193 - dcgan_base - INFO - Discriminator created
2024-06-27 22:57:13,193 - dcgan_base - INFO - Discriminator created
2024-06-27 22:57:13,204 - dcgan_base - INFO - Model: "sequential_14"
_________________________________________________________________
 Layer (type)                Output Shape              Param #   
=================================================================
 conv2d_14 (Conv2D)          (None, 32, 32, 64)        1792      
                                                                 
 leaky_re_lu_35 (LeakyReLU)  (None, 32, 32, 64)        0         
                                                                 
 dropout_10 (Dropout)        (None, 32, 32, 64)        0         
                                                                 
 conv2d_15 (Conv2D)          (None, 16, 16, 128)       73856     
                                                                 
 batch_normalization_23 (Ba  (None, 16, 16, 128)       512       
 tchNormalization)                                               
                                                                 
 leaky_re_lu_36 (LeakyReLU)  (None, 16, 16, 128)       0         
                                                                 
 dropout_11 (Dropout)        (None, 16, 16, 128)       0         
                                                                 
 flatten_5 (Flatten)         (None, 32768)             0         
                                                                 
 dense_10 (Dense)            (None, 1)                 32769     
                                                                 
=================================================================
Total params: 108929 (425.50 KB)
Trainable params: 108673 (424.50 KB)
Non-trainable params: 256 (1.00 KB)
_________________________________________________________________

2024-06-27 22:57:13,204 - dcgan_base - INFO - Model: "sequential_14"
_________________________________________________________________
 Layer (type)                Output Shape              Param #   
=================================================================
 conv2d_14 (Conv2D)          (None, 32, 32, 64)        1792      
                                                                 
 leaky_re_lu_35 (LeakyReLU)  (None, 32, 32, 64)        0         
                                                                 
 dropout_10 (Dropout)        (None, 32, 32, 64)        0         
                                                                 
 conv2d_15 (Conv2D)          (None, 16, 16, 128)       73856     
                                                                 
 batch_normalization_23 (Ba  (None, 16, 16, 128)       512       
 tchNormalization)                                               
                                                                 
 leaky_re_lu_36 (LeakyReLU)  (None, 16, 16, 128)       0         
                                                                 
 dropout_11 (Dropout)        (None, 16, 16, 128)       0         
                                                                 
 flatten_5 (Flatten)         (None, 32768)             0         
                                                                 
 dense_10 (Dense)            (None, 1)                 32769     
                                                                 
=================================================================
Total params: 108929 (425.50 KB)
Trainable params: 108673 (424.50 KB)
Non-trainable params: 256 (1.00 KB)
_________________________________________________________________

2024-06-27 22:57:13,204 - dcgan_base - INFO - Model: "sequential_14"
_________________________________________________________________
 Layer (type)                Output Shape              Param #   
=================================================================
 conv2d_14 (Conv2D)          (None, 32, 32, 64)        1792      
                                                                 
 leaky_re_lu_35 (LeakyReLU)  (None, 32, 32, 64)        0         
                                                                 
 dropout_10 (Dropout)        (None, 32, 32, 64)        0         
                                                                 
 conv2d_15 (Conv2D)          (None, 16, 16, 128)       73856     
                                                                 
 batch_normalization_23 (Ba  (None, 16, 16, 128)       512       
 tchNormalization)                                               
                                                                 
 leaky_re_lu_36 (LeakyReLU)  (None, 16, 16, 128)       0         
                                                                 
 dropout_11 (Dropout)        (None, 16, 16, 128)       0         
                                                                 
 flatten_5 (Flatten)         (None, 32768)             0         
                                                                 
 dense_10 (Dense)            (None, 1)                 32769     
                                                                 
=================================================================
Total params: 108929 (425.50 KB)
Trainable params: 108673 (424.50 KB)
Non-trainable params: 256 (1.00 KB)
_________________________________________________________________

2024-06-27 22:57:13,204 - dcgan_base - INFO - Model: "sequential_14"
_________________________________________________________________
 Layer (type)                Output Shape              Param #   
=================================================================
 conv2d_14 (Conv2D)          (None, 32, 32, 64)        1792      
                                                                 
 leaky_re_lu_35 (LeakyReLU)  (None, 32, 32, 64)        0         
                                                                 
 dropout_10 (Dropout)        (None, 32, 32, 64)        0         
                                                                 
 conv2d_15 (Conv2D)          (None, 16, 16, 128)       73856     
                                                                 
 batch_normalization_23 (Ba  (None, 16, 16, 128)       512       
 tchNormalization)                                               
                                                                 
 leaky_re_lu_36 (LeakyReLU)  (None, 16, 16, 128)       0         
                                                                 
 dropout_11 (Dropout)        (None, 16, 16, 128)       0         
                                                                 
 flatten_5 (Flatten)         (None, 32768)             0         
                                                                 
 dense_10 (Dense)            (None, 1)                 32769     
                                                                 
=================================================================
Total params: 108929 (425.50 KB)
Trainable params: 108673 (424.50 KB)
Non-trainable params: 256 (1.00 KB)
_________________________________________________________________

2024-06-27 22:57:13,204 - dcgan_base - INFO - Model: "sequential_14"
_________________________________________________________________
 Layer (type)                Output Shape              Param #   
=================================================================
 conv2d_14 (Conv2D)          (None, 32, 32, 64)        1792      
                                                                 
 leaky_re_lu_35 (LeakyReLU)  (None, 32, 32, 64)        0         
                                                                 
 dropout_10 (Dropout)        (None, 32, 32, 64)        0         
                                                                 
 conv2d_15 (Conv2D)          (None, 16, 16, 128)       73856     
                                                                 
 batch_normalization_23 (Ba  (None, 16, 16, 128)       512       
 tchNormalization)                                               
                                                                 
 leaky_re_lu_36 (LeakyReLU)  (None, 16, 16, 128)       0         
                                                                 
 dropout_11 (Dropout)        (None, 16, 16, 128)       0         
                                                                 
 flatten_5 (Flatten)         (None, 32768)             0         
                                                                 
 dense_10 (Dense)            (None, 1)                 32769     
                                                                 
=================================================================
Total params: 108929 (425.50 KB)
Trainable params: 108673 (424.50 KB)
Non-trainable params: 256 (1.00 KB)
_________________________________________________________________

2024-06-27 22:57:13,204 - dcgan_base - INFO - Model: "sequential_14"
_________________________________________________________________
 Layer (type)                Output Shape              Param #   
=================================================================
 conv2d_14 (Conv2D)          (None, 32, 32, 64)        1792      
                                                                 
 leaky_re_lu_35 (LeakyReLU)  (None, 32, 32, 64)        0         
                                                                 
 dropout_10 (Dropout)        (None, 32, 32, 64)        0         
                                                                 
 conv2d_15 (Conv2D)          (None, 16, 16, 128)       73856     
                                                                 
 batch_normalization_23 (Ba  (None, 16, 16, 128)       512       
 tchNormalization)                                               
                                                                 
 leaky_re_lu_36 (LeakyReLU)  (None, 16, 16, 128)       0         
                                                                 
 dropout_11 (Dropout)        (None, 16, 16, 128)       0         
                                                                 
 flatten_5 (Flatten)         (None, 32768)             0         
                                                                 
 dense_10 (Dense)            (None, 1)                 32769     
                                                                 
=================================================================
Total params: 108929 (425.50 KB)
Trainable params: 108673 (424.50 KB)
Non-trainable params: 256 (1.00 KB)
_________________________________________________________________

2024-06-27 22:57:13,214 - dcgan_base - INFO - ------------------------------------------------------------
…
2024-06-27 22:57:13,432 - dcgan_base - INFO - Generator created
2024-06-27 22:57:13,432 - dcgan_base - INFO - Generator created
2024-06-27 22:57:13,432 - dcgan_base - INFO - Generator created
2024-06-27 22:57:13,432 - dcgan_base - INFO - Generator created
2024-06-27 22:57:13,432 - dcgan_base - INFO - Generator created
2024-06-27 22:57:13,445 - dcgan_base - INFO - Model: "sequential_15"
_________________________________________________________________
 Layer (type)                Output Shape              Param #   
=================================================================
 dense_11 (Dense)            (None, 4096)              413696    
                                                                 
 leaky_re_lu_37 (LeakyReLU)  (None, 4096)              0         
                                                                 
 reshape_5 (Reshape)         (None, 4, 4, 256)         0         
                                                                 
 conv2d_transpose_21 (Conv2  (None, 8, 8, 256)         1048832   
 DTranspose)                                                     
                                                                 
 batch_normalization_24 (Ba  (None, 8, 8, 256)         1024      
 tchNormalization)                                               
                                                                 
 leaky_re_lu_38 (LeakyReLU)  (None, 8, 8, 256)         0         
                                                                 
 conv2d_transpose_22 (Conv2  (None, 16, 16, 256)       1048832   
 DTranspose)                                                     
                                                                 
 batch_normalization_25 (Ba  (None, 16, 16, 256)       1024      
 tchNormalization)                                               
                                                                 
 leaky_re_lu_39 (LeakyReLU)  (None, 16, 16, 256)       0         
                                                                 
 conv2d_transpose_23 (Conv2  (None, 32, 32, 128)       524416    
 DTranspose)                                                     
                                                                 
 batch_normalization_26 (Ba  (None, 32, 32, 128)       512       
 tchNormalization)                                               
                                                                 
 leaky_re_lu_40 (LeakyReLU)  (None, 32, 32, 128)       0         
                                                                 
 conv2d_transpose_24 (Conv2  (None, 64, 64, 128)       262272    
 DTranspose)                                                     
                                                                 
 batch_normalization_27 (Ba  (None, 64, 64, 128)       512       
 tchNormalization)                                               
                                                                 
 leaky_re_lu_41 (LeakyReLU)  (None, 64, 64, 128)       0         
                                                                 
 conv2d_16 (Conv2D)          (None, 64, 64, 3)         3459      
                                                                 
=================================================================
Total params: 3304579 (12.61 MB)
Trainable params: 3303043 (12.60 MB)
Non-trainable params: 1536 (6.00 KB)
_________________________________________________________________

2024-06-27 22:57:13,445 - dcgan_base - INFO - Model: "sequential_15"
_________________________________________________________________
 Layer (type)                Output Shape              Param #   
=================================================================
 dense_11 (Dense)            (None, 4096)              413696    
                                                                 
 leaky_re_lu_37 (LeakyReLU)  (None, 4096)              0         
                                                                 
 reshape_5 (Reshape)         (None, 4, 4, 256)         0         
                                                                 
 conv2d_transpose_21 (Conv2  (None, 8, 8, 256)         1048832   
 DTranspose)                                                     
                                                                 
 batch_normalization_24 (Ba  (None, 8, 8, 256)         1024      
 tchNormalization)                                               
                                                                 
 leaky_re_lu_38 (LeakyReLU)  (None, 8, 8, 256)         0         
                                                                 
 conv2d_transpose_22 (Conv2  (None, 16, 16, 256)       1048832   
 DTranspose)                                                     
                                                                 
 batch_normalization_25 (Ba  (None, 16, 16, 256)       1024      
 tchNormalization)                                               
                                                                 
 leaky_re_lu_39 (LeakyReLU)  (None, 16, 16, 256)       0         
                                                                 
 conv2d_transpose_23 (Conv2  (None, 32, 32, 128)       524416    
 DTranspose)                                                     
                                                                 
 batch_normalization_26 (Ba  (None, 32, 32, 128)       512       
 tchNormalization)                                               
                                                                 
 leaky_re_lu_40 (LeakyReLU)  (None, 32, 32, 128)       0         
                                                                 
 conv2d_transpose_24 (Conv2  (None, 64, 64, 128)       262272    
 DTranspose)                                                     
                                                                 
 batch_normalization_27 (Ba  (None, 64, 64, 128)       512       
 tchNormalization)                                               
                                                                 
 leaky_re_lu_41 (LeakyReLU)  (None, 64, 64, 128)       0         
                                                                 
 conv2d_16 (Conv2D)          (None, 64, 64, 3)         3459      
                                                                 
=================================================================
Total params: 3304579 (12.61 MB)
Trainable params: 3303043 (12.60 MB)
Non-trainable params: 1536 (6.00 KB)
_________________________________________________________________

2024-06-27 22:57:13,445 - dcgan_base - INFO - Model: "sequential_15"
_________________________________________________________________
 Layer (type)                Output Shape              Param #   
=================================================================
 dense_11 (Dense)            (None, 4096)              413696    
                                                                 
 leaky_re_lu_37 (LeakyReLU)  (None, 4096)              0         
                                                                 
 reshape_5 (Reshape)         (None, 4, 4, 256)         0         
                                                                 
 conv2d_transpose_21 (Conv2  (None, 8, 8, 256)         1048832   
 DTranspose)                                                     
                                                                 
 batch_normalization_24 (Ba  (None, 8, 8, 256)         1024      
 tchNormalization)                                               
                                                                 
 leaky_re_lu_38 (LeakyReLU)  (None, 8, 8, 256)         0         
                                                                 
 conv2d_transpose_22 (Conv2  (None, 16, 16, 256)       1048832   
 DTranspose)                                                     
                                                                 
 batch_normalization_25 (Ba  (None, 16, 16, 256)       1024      
 tchNormalization)                                               
                                                                 
 leaky_re_lu_39 (LeakyReLU)  (None, 16, 16, 256)       0         
                                                                 
 conv2d_transpose_23 (Conv2  (None, 32, 32, 128)       524416    
 DTranspose)                                                     
                                                                 
 batch_normalization_26 (Ba  (None, 32, 32, 128)       512       
 tchNormalization)                                               
                                                                 
 leaky_re_lu_40 (LeakyReLU)  (None, 32, 32, 128)       0         
                                                                 
 conv2d_transpose_24 (Conv2  (None, 64, 64, 128)       262272    
 DTranspose)                                                     
                                                                 
 batch_normalization_27 (Ba  (None, 64, 64, 128)       512       
 tchNormalization)                                               
                                                                 
 leaky_re_lu_41 (LeakyReLU)  (None, 64, 64, 128)       0         
                                                                 
 conv2d_16 (Conv2D)          (None, 64, 64, 3)         3459      
                                                                 
=================================================================
Total params: 3304579 (12.61 MB)
Trainable params: 3303043 (12.60 MB)
Non-trainable params: 1536 (6.00 KB)
_________________________________________________________________

2024-06-27 22:57:13,445 - dcgan_base - INFO - Model: "sequential_15"
_________________________________________________________________
 Layer (type)                Output Shape              Param #   
=================================================================
 dense_11 (Dense)            (None, 4096)              413696    
                                                                 
 leaky_re_lu_37 (LeakyReLU)  (None, 4096)              0         
                                                                 
 reshape_5 (Reshape)         (None, 4, 4, 256)         0         
                                                                 
 conv2d_transpose_21 (Conv2  (None, 8, 8, 256)         1048832   
 DTranspose)                                                     
                                                                 
 batch_normalization_24 (Ba  (None, 8, 8, 256)         1024      
 tchNormalization)                                               
                                                                 
 leaky_re_lu_38 (LeakyReLU)  (None, 8, 8, 256)         0         
                                                                 
 conv2d_transpose_22 (Conv2  (None, 16, 16, 256)       1048832   
 DTranspose)                                                     
                                                                 
 batch_normalization_25 (Ba  (None, 16, 16, 256)       1024      
 tchNormalization)                                               
                                                                 
 leaky_re_lu_39 (LeakyReLU)  (None, 16, 16, 256)       0         
                                                                 
 conv2d_transpose_23 (Conv2  (None, 32, 32, 128)       524416    
 DTranspose)                                                     
                                                                 
 batch_normalization_26 (Ba  (None, 32, 32, 128)       512       
 tchNormalization)                                               
                                                                 
 leaky_re_lu_40 (LeakyReLU)  (None, 32, 32, 128)       0         
                                                                 
 conv2d_transpose_24 (Conv2  (None, 64, 64, 128)       262272    
 DTranspose)                                                     
                                                                 
 batch_normalization_27 (Ba  (None, 64, 64, 128)       512       
 tchNormalization)                                               
                                                                 
 leaky_re_lu_41 (LeakyReLU)  (None, 64, 64, 128)       0         
                                                                 
 conv2d_16 (Conv2D)          (None, 64, 64, 3)         3459      
                                                                 
=================================================================
Total params: 3304579 (12.61 MB)
Trainable params: 3303043 (12.60 MB)
Non-trainable params: 1536 (6.00 KB)
_________________________________________________________________

2024-06-27 22:57:13,445 - dcgan_base - INFO - Model: "sequential_15"
_________________________________________________________________
 Layer (type)                Output Shape              Param #   
=================================================================
 dense_11 (Dense)            (None, 4096)              413696    
                                                                 
 leaky_re_lu_37 (LeakyReLU)  (None, 4096)              0         
                                                                 
 reshape_5 (Reshape)         (None, 4, 4, 256)         0         
                                                                 
 conv2d_transpose_21 (Conv2  (None, 8, 8, 256)         1048832   
 DTranspose)                                                     
                                                                 
 batch_normalization_24 (Ba  (None, 8, 8, 256)         1024      
 tchNormalization)                                               
                                                                 
 leaky_re_lu_38 (LeakyReLU)  (None, 8, 8, 256)         0         
                                                                 
 conv2d_transpose_22 (Conv2  (None, 16, 16, 256)       1048832   
 DTranspose)                                                     
                                                                 
 batch_normalization_25 (Ba  (None, 16, 16, 256)       1024      
 tchNormalization)                                               
                                                                 
 leaky_re_lu_39 (LeakyReLU)  (None, 16, 16, 256)       0         
                                                                 
 conv2d_transpose_23 (Conv2  (None, 32, 32, 128)       524416    
 DTranspose)                                                     
                                                                 
 batch_normalization_26 (Ba  (None, 32, 32, 128)       512       
 tchNormalization)                                               
                                                                 
 leaky_re_lu_40 (LeakyReLU)  (None, 32, 32, 128)       0         
                                                                 
 conv2d_transpose_24 (Conv2  (None, 64, 64, 128)       262272    
 DTranspose)                                                     
                                                                 
 batch_normalization_27 (Ba  (None, 64, 64, 128)       512       
 tchNormalization)                                               
                                                                 
 leaky_re_lu_41 (LeakyReLU)  (None, 64, 64, 128)       0         
                                                                 
 conv2d_16 (Conv2D)          (None, 64, 64, 3)         3459      
                                                                 
=================================================================
Total params: 3304579 (12.61 MB)
Trainable params: 3303043 (12.60 MB)
Non-trainable params: 1536 (6.00 KB)
_________________________________________________________________

2024-06-27 22:57:13,445 - dcgan_base - INFO - Model: "sequential_15"
_________________________________________________________________
 Layer (type)                Output Shape              Param #   
=================================================================
 dense_11 (Dense)            (None, 4096)              413696    
                                                                 
 leaky_re_lu_37 (LeakyReLU)  (None, 4096)              0         
                                                                 
 reshape_5 (Reshape)         (None, 4, 4, 256)         0         
                                                                 
 conv2d_transpose_21 (Conv2  (None, 8, 8, 256)         1048832   
 DTranspose)                                                     
                                                                 
 batch_normalization_24 (Ba  (None, 8, 8, 256)         1024      
 tchNormalization)                                               
                                                                 
 leaky_re_lu_38 (LeakyReLU)  (None, 8, 8, 256)         0         
                                                                 
 conv2d_transpose_22 (Conv2  (None, 16, 16, 256)       1048832   
 DTranspose)                                                     
                                                                 
 batch_normalization_25 (Ba  (None, 16, 16, 256)       1024      
 tchNormalization)                                               
                                                                 
 leaky_re_lu_39 (LeakyReLU)  (None, 16, 16, 256)       0         
                                                                 
 conv2d_transpose_23 (Conv2  (None, 32, 32, 128)       524416    
 DTranspose)                                                     
                                                                 
 batch_normalization_26 (Ba  (None, 32, 32, 128)       512       
 tchNormalization)                                               
                                                                 
 leaky_re_lu_40 (LeakyReLU)  (None, 32, 32, 128)       0         
                                                                 
 conv2d_transpose_24 (Conv2  (None, 64, 64, 128)       262272    
 DTranspose)                                                     
                                                                 
 batch_normalization_27 (Ba  (None, 64, 64, 128)       512       
 tchNormalization)                                               
                                                                 
 leaky_re_lu_41 (LeakyReLU)  (None, 64, 64, 128)       0         
                                                                 
 conv2d_16 (Conv2D)          (None, 64, 64, 3)         3459      
                                                                 
=================================================================
Total params: 3304579 (12.61 MB)
Trainable params: 3303043 (12.60 MB)
Non-trainable params: 1536 (6.00 KB)
_________________________________________________________________

2024-06-27 22:57:13,455 - dcgan_base - INFO - ------------------------------------------------------------
…
2024-06-27 22:57:13,598 - dcgan_base - INFO - GAN created
2024-06-27 22:57:13,598 - dcgan_base - INFO - GAN created
2024-06-27 22:57:13,598 - dcgan_base - INFO - GAN created
2024-06-27 22:57:13,598 - dcgan_base - INFO - GAN created
2024-06-27 22:57:13,598 - dcgan_base - INFO - GAN created
2024-06-27 22:57:13,598 - dcgan_base - INFO - GAN created
2024-06-27 22:57:13,609 - dcgan_base - INFO - Model: "sequential_16"
_________________________________________________________________
 Layer (type)                Output Shape              Param #   
=================================================================
 sequential_15 (Sequential)  (None, 64, 64, 3)         3304579   
                                                                 
 sequential_14 (Sequential)  (None, 1)                 108929    
                                                                 
=================================================================
Total params: 3413508 (13.02 MB)
Trainable params: 3303043 (12.60 MB)
Non-trainable params: 110465 (431.50 KB)
_________________________________________________________________

2024-06-27 22:57:13,609 - dcgan_base - INFO - Model: "sequential_16"
_________________________________________________________________
 Layer (type)                Output Shape              Param #   
=================================================================
 sequential_15 (Sequential)  (None, 64, 64, 3)         3304579   
                                                                 
 sequential_14 (Sequential)  (None, 1)                 108929    
                                                                 
=================================================================
Total params: 3413508 (13.02 MB)
Trainable params: 3303043 (12.60 MB)
Non-trainable params: 110465 (431.50 KB)
_________________________________________________________________

2024-06-27 22:57:13,609 - dcgan_base - INFO - Model: "sequential_16"
_________________________________________________________________
 Layer (type)                Output Shape              Param #   
=================================================================
 sequential_15 (Sequential)  (None, 64, 64, 3)         3304579   
                                                                 
 sequential_14 (Sequential)  (None, 1)                 108929    
                                                                 
=================================================================
Total params: 3413508 (13.02 MB)
Trainable params: 3303043 (12.60 MB)
Non-trainable params: 110465 (431.50 KB)
_________________________________________________________________

2024-06-27 22:57:13,609 - dcgan_base - INFO - Model: "sequential_16"
_________________________________________________________________
 Layer (type)                Output Shape              Param #   
=================================================================
 sequential_15 (Sequential)  (None, 64, 64, 3)         3304579   
                                                                 
 sequential_14 (Sequential)  (None, 1)                 108929    
                                                                 
=================================================================
Total params: 3413508 (13.02 MB)
Trainable params: 3303043 (12.60 MB)
Non-trainable params: 110465 (431.50 KB)
_________________________________________________________________

2024-06-27 22:57:13,609 - dcgan_base - INFO - Model: "sequential_16"
_________________________________________________________________
 Layer (type)                Output Shape              Param #   
=================================================================
 sequential_15 (Sequential)  (None, 64, 64, 3)         3304579   
                                                                 
 sequential_14 (Sequential)  (None, 1)                 108929    
                                                                 
=================================================================
Total params: 3413508 (13.02 MB)
Trainable params: 3303043 (12.60 MB)
Non-trainable params: 110465 (431.50 KB)
_________________________________________________________________

2024-06-27 22:57:13,609 - dcgan_base - INFO - Model: "sequential_16"
_________________________________________________________________
 Layer (type)                Output Shape              Param #   
=================================================================
 sequential_15 (Sequential)  (None, 64, 64, 3)         3304579   
                                                                 
 sequential_14 (Sequential)  (None, 1)                 108929    
                                                                 
=================================================================
Total params: 3413508 (13.02 MB)
Trainable params: 3303043 (12.60 MB)
Non-trainable params: 110465 (431.50 KB)
_________________________________________________________________

2024-06-27 22:57:13,619 - dcgan_base - INFO - ------------------------------------------------------------
…
2024-06-27 23:00:19,251 - dcgan_base - INFO - Discriminator created
2024-06-27 23:00:19,251 - dcgan_base - INFO - Discriminator created
2024-06-27 23:00:19,251 - dcgan_base - INFO - Discriminator created
2024-06-27 23:00:19,251 - dcgan_base - INFO - Discriminator created
2024-06-27 23:00:19,251 - dcgan_base - INFO - Discriminator created
2024-06-27 23:00:19,262 - dcgan_base - INFO - Model: "sequential_17"
_________________________________________________________________
 Layer (type)                Output Shape              Param #   
=================================================================
 conv2d_17 (Conv2D)          (None, 32, 32, 64)        1792      
                                                                 
 leaky_re_lu_42 (LeakyReLU)  (None, 32, 32, 64)        0         
                                                                 
 dropout_12 (Dropout)        (None, 32, 32, 64)        0         
                                                                 
 conv2d_18 (Conv2D)          (None, 16, 16, 128)       73856     
                                                                 
 batch_normalization_28 (Ba  (None, 16, 16, 128)       512       
 tchNormalization)                                               
                                                                 
 leaky_re_lu_43 (LeakyReLU)  (None, 16, 16, 128)       0         
                                                                 
 dropout_13 (Dropout)        (None, 16, 16, 128)       0         
                                                                 
 flatten_6 (Flatten)         (None, 32768)             0         
                                                                 
 dense_12 (Dense)            (None, 1)                 32769     
                                                                 
=================================================================
Total params: 108929 (425.50 KB)
Trainable params: 108673 (424.50 KB)
Non-trainable params: 256 (1.00 KB)
_________________________________________________________________

2024-06-27 23:00:19,262 - dcgan_base - INFO - Model: "sequential_17"
_________________________________________________________________
 Layer (type)                Output Shape              Param #   
=================================================================
 conv2d_17 (Conv2D)          (None, 32, 32, 64)        1792      
                                                                 
 leaky_re_lu_42 (LeakyReLU)  (None, 32, 32, 64)        0         
                                                                 
 dropout_12 (Dropout)        (None, 32, 32, 64)        0         
                                                                 
 conv2d_18 (Conv2D)          (None, 16, 16, 128)       73856     
                                                                 
 batch_normalization_28 (Ba  (None, 16, 16, 128)       512       
 tchNormalization)                                               
                                                                 
 leaky_re_lu_43 (LeakyReLU)  (None, 16, 16, 128)       0         
                                                                 
 dropout_13 (Dropout)        (None, 16, 16, 128)       0         
                                                                 
 flatten_6 (Flatten)         (None, 32768)             0         
                                                                 
 dense_12 (Dense)            (None, 1)                 32769     
                                                                 
=================================================================
Total params: 108929 (425.50 KB)
Trainable params: 108673 (424.50 KB)
Non-trainable params: 256 (1.00 KB)
_________________________________________________________________

2024-06-27 23:00:19,262 - dcgan_base - INFO - Model: "sequential_17"
_________________________________________________________________
 Layer (type)                Output Shape              Param #   
=================================================================
 conv2d_17 (Conv2D)          (None, 32, 32, 64)        1792      
                                                                 
 leaky_re_lu_42 (LeakyReLU)  (None, 32, 32, 64)        0         
                                                                 
 dropout_12 (Dropout)        (None, 32, 32, 64)        0         
                                                                 
 conv2d_18 (Conv2D)          (None, 16, 16, 128)       73856     
                                                                 
 batch_normalization_28 (Ba  (None, 16, 16, 128)       512       
 tchNormalization)                                               
                                                                 
 leaky_re_lu_43 (LeakyReLU)  (None, 16, 16, 128)       0         
                                                                 
 dropout_13 (Dropout)        (None, 16, 16, 128)       0         
                                                                 
 flatten_6 (Flatten)         (None, 32768)             0         
                                                                 
 dense_12 (Dense)            (None, 1)                 32769     
                                                                 
=================================================================
Total params: 108929 (425.50 KB)
Trainable params: 108673 (424.50 KB)
Non-trainable params: 256 (1.00 KB)
_________________________________________________________________

2024-06-27 23:00:19,262 - dcgan_base - INFO - Model: "sequential_17"
_________________________________________________________________
 Layer (type)                Output Shape              Param #   
=================================================================
 conv2d_17 (Conv2D)          (None, 32, 32, 64)        1792      
                                                                 
 leaky_re_lu_42 (LeakyReLU)  (None, 32, 32, 64)        0         
                                                                 
 dropout_12 (Dropout)        (None, 32, 32, 64)        0         
                                                                 
 conv2d_18 (Conv2D)          (None, 16, 16, 128)       73856     
                                                                 
 batch_normalization_28 (Ba  (None, 16, 16, 128)       512       
 tchNormalization)                                               
                                                                 
 leaky_re_lu_43 (LeakyReLU)  (None, 16, 16, 128)       0         
                                                                 
 dropout_13 (Dropout)        (None, 16, 16, 128)       0         
                                                                 
 flatten_6 (Flatten)         (None, 32768)             0         
                                                                 
 dense_12 (Dense)            (None, 1)                 32769     
                                                                 
=================================================================
Total params: 108929 (425.50 KB)
Trainable params: 108673 (424.50 KB)
Non-trainable params: 256 (1.00 KB)
_________________________________________________________________

2024-06-27 23:00:19,262 - dcgan_base - INFO - Model: "sequential_17"
_________________________________________________________________
 Layer (type)                Output Shape              Param #   
=================================================================
 conv2d_17 (Conv2D)          (None, 32, 32, 64)        1792      
                                                                 
 leaky_re_lu_42 (LeakyReLU)  (None, 32, 32, 64)        0         
                                                                 
 dropout_12 (Dropout)        (None, 32, 32, 64)        0         
                                                                 
 conv2d_18 (Conv2D)          (None, 16, 16, 128)       73856     
                                                                 
 batch_normalization_28 (Ba  (None, 16, 16, 128)       512       
 tchNormalization)                                               
                                                                 
 leaky_re_lu_43 (LeakyReLU)  (None, 16, 16, 128)       0         
                                                                 
 dropout_13 (Dropout)        (None, 16, 16, 128)       0         
                                                                 
 flatten_6 (Flatten)         (None, 32768)             0         
                                                                 
 dense_12 (Dense)            (None, 1)                 32769     
                                                                 
=================================================================
Total params: 108929 (425.50 KB)
Trainable params: 108673 (424.50 KB)
Non-trainable params: 256 (1.00 KB)
_________________________________________________________________

2024-06-27 23:00:19,262 - dcgan_base - INFO - Model: "sequential_17"
_________________________________________________________________
 Layer (type)                Output Shape              Param #   
=================================================================
 conv2d_17 (Conv2D)          (None, 32, 32, 64)        1792      
                                                                 
 leaky_re_lu_42 (LeakyReLU)  (None, 32, 32, 64)        0         
                                                                 
 dropout_12 (Dropout)        (None, 32, 32, 64)        0         
                                                                 
 conv2d_18 (Conv2D)          (None, 16, 16, 128)       73856     
                                                                 
 batch_normalization_28 (Ba  (None, 16, 16, 128)       512       
 tchNormalization)                                               
                                                                 
 leaky_re_lu_43 (LeakyReLU)  (None, 16, 16, 128)       0         
                                                                 
 dropout_13 (Dropout)        (None, 16, 16, 128)       0         
                                                                 
 flatten_6 (Flatten)         (None, 32768)             0         
                                                                 
 dense_12 (Dense)            (None, 1)                 32769     
                                                                 
=================================================================
Total params: 108929 (425.50 KB)
Trainable params: 108673 (424.50 KB)
Non-trainable params: 256 (1.00 KB)
_________________________________________________________________

2024-06-27 23:00:19,262 - dcgan_base - INFO - Model: "sequential_17"
_________________________________________________________________
 Layer (type)                Output Shape              Param #   
=================================================================
 conv2d_17 (Conv2D)          (None, 32, 32, 64)        1792      
                                                                 
 leaky_re_lu_42 (LeakyReLU)  (None, 32, 32, 64)        0         
                                                                 
 dropout_12 (Dropout)        (None, 32, 32, 64)        0         
                                                                 
 conv2d_18 (Conv2D)          (None, 16, 16, 128)       73856     
                                                                 
 batch_normalization_28 (Ba  (None, 16, 16, 128)       512       
 tchNormalization)                                               
                                                                 
 leaky_re_lu_43 (LeakyReLU)  (None, 16, 16, 128)       0         
                                                                 
 dropout_13 (Dropout)        (None, 16, 16, 128)       0         
                                                                 
 flatten_6 (Flatten)         (None, 32768)             0         
                                                                 
 dense_12 (Dense)            (None, 1)                 32769     
                                                                 
=================================================================
Total params: 108929 (425.50 KB)
Trainable params: 108673 (424.50 KB)
Non-trainable params: 256 (1.00 KB)
_________________________________________________________________

2024-06-27 23:00:19,272 - dcgan_base - INFO - ------------------------------------------------------------
…
2024-06-27 23:00:19,464 - dcgan_base - INFO - Generator created
2024-06-27 23:00:19,464 - dcgan_base - INFO - Generator created
2024-06-27 23:00:19,464 - dcgan_base - INFO - Generator created
2024-06-27 23:00:19,464 - dcgan_base - INFO - Generator created
2024-06-27 23:00:19,464 - dcgan_base - INFO - Generator created
2024-06-27 23:00:19,477 - dcgan_base - INFO - Model: "sequential_18"
_________________________________________________________________
 Layer (type)                Output Shape              Param #   
=================================================================
 dense_13 (Dense)            (None, 4096)              413696    
                                                                 
 leaky_re_lu_44 (LeakyReLU)  (None, 4096)              0         
                                                                 
 reshape_6 (Reshape)         (None, 4, 4, 256)         0         
                                                                 
 conv2d_transpose_25 (Conv2  (None, 8, 8, 256)         1048832   
 DTranspose)                                                     
                                                                 
 batch_normalization_29 (Ba  (None, 8, 8, 256)         1024      
 tchNormalization)                                               
                                                                 
 leaky_re_lu_45 (LeakyReLU)  (None, 8, 8, 256)         0         
                                                                 
 conv2d_transpose_26 (Conv2  (None, 16, 16, 256)       1048832   
 DTranspose)                                                     
                                                                 
 batch_normalization_30 (Ba  (None, 16, 16, 256)       1024      
 tchNormalization)                                               
                                                                 
 leaky_re_lu_46 (LeakyReLU)  (None, 16, 16, 256)       0         
                                                                 
 conv2d_transpose_27 (Conv2  (None, 32, 32, 128)       524416    
 DTranspose)                                                     
                                                                 
 batch_normalization_31 (Ba  (None, 32, 32, 128)       512       
 tchNormalization)                                               
                                                                 
 leaky_re_lu_47 (LeakyReLU)  (None, 32, 32, 128)       0         
                                                                 
 conv2d_transpose_28 (Conv2  (None, 64, 64, 128)       262272    
 DTranspose)                                                     
                                                                 
 batch_normalization_32 (Ba  (None, 64, 64, 128)       512       
 tchNormalization)                                               
                                                                 
 leaky_re_lu_48 (LeakyReLU)  (None, 64, 64, 128)       0         
                                                                 
 conv2d_19 (Conv2D)          (None, 64, 64, 3)         3459      
                                                                 
=================================================================
Total params: 3304579 (12.61 MB)
Trainable params: 3303043 (12.60 MB)
Non-trainable params: 1536 (6.00 KB)
_________________________________________________________________

2024-06-27 23:00:19,477 - dcgan_base - INFO - Model: "sequential_18"
_________________________________________________________________
 Layer (type)                Output Shape              Param #   
=================================================================
 dense_13 (Dense)            (None, 4096)              413696    
                                                                 
 leaky_re_lu_44 (LeakyReLU)  (None, 4096)              0         
                                                                 
 reshape_6 (Reshape)         (None, 4, 4, 256)         0         
                                                                 
 conv2d_transpose_25 (Conv2  (None, 8, 8, 256)         1048832   
 DTranspose)                                                     
                                                                 
 batch_normalization_29 (Ba  (None, 8, 8, 256)         1024      
 tchNormalization)                                               
                                                                 
 leaky_re_lu_45 (LeakyReLU)  (None, 8, 8, 256)         0         
                                                                 
 conv2d_transpose_26 (Conv2  (None, 16, 16, 256)       1048832   
 DTranspose)                                                     
                                                                 
 batch_normalization_30 (Ba  (None, 16, 16, 256)       1024      
 tchNormalization)                                               
                                                                 
 leaky_re_lu_46 (LeakyReLU)  (None, 16, 16, 256)       0         
                                                                 
 conv2d_transpose_27 (Conv2  (None, 32, 32, 128)       524416    
 DTranspose)                                                     
                                                                 
 batch_normalization_31 (Ba  (None, 32, 32, 128)       512       
 tchNormalization)                                               
                                                                 
 leaky_re_lu_47 (LeakyReLU)  (None, 32, 32, 128)       0         
                                                                 
 conv2d_transpose_28 (Conv2  (None, 64, 64, 128)       262272    
 DTranspose)                                                     
                                                                 
 batch_normalization_32 (Ba  (None, 64, 64, 128)       512       
 tchNormalization)                                               
                                                                 
 leaky_re_lu_48 (LeakyReLU)  (None, 64, 64, 128)       0         
                                                                 
 conv2d_19 (Conv2D)          (None, 64, 64, 3)         3459      
                                                                 
=================================================================
Total params: 3304579 (12.61 MB)
Trainable params: 3303043 (12.60 MB)
Non-trainable params: 1536 (6.00 KB)
_________________________________________________________________

2024-06-27 23:00:19,477 - dcgan_base - INFO - Model: "sequential_18"
_________________________________________________________________
 Layer (type)                Output Shape              Param #   
=================================================================
 dense_13 (Dense)            (None, 4096)              413696    
                                                                 
 leaky_re_lu_44 (LeakyReLU)  (None, 4096)              0         
                                                                 
 reshape_6 (Reshape)         (None, 4, 4, 256)         0         
                                                                 
 conv2d_transpose_25 (Conv2  (None, 8, 8, 256)         1048832   
 DTranspose)                                                     
                                                                 
 batch_normalization_29 (Ba  (None, 8, 8, 256)         1024      
 tchNormalization)                                               
                                                                 
 leaky_re_lu_45 (LeakyReLU)  (None, 8, 8, 256)         0         
                                                                 
 conv2d_transpose_26 (Conv2  (None, 16, 16, 256)       1048832   
 DTranspose)                                                     
                                                                 
 batch_normalization_30 (Ba  (None, 16, 16, 256)       1024      
 tchNormalization)                                               
                                                                 
 leaky_re_lu_46 (LeakyReLU)  (None, 16, 16, 256)       0         
                                                                 
 conv2d_transpose_27 (Conv2  (None, 32, 32, 128)       524416    
 DTranspose)                                                     
                                                                 
 batch_normalization_31 (Ba  (None, 32, 32, 128)       512       
 tchNormalization)                                               
                                                                 
 leaky_re_lu_47 (LeakyReLU)  (None, 32, 32, 128)       0         
                                                                 
 conv2d_transpose_28 (Conv2  (None, 64, 64, 128)       262272    
 DTranspose)                                                     
                                                                 
 batch_normalization_32 (Ba  (None, 64, 64, 128)       512       
 tchNormalization)                                               
                                                                 
 leaky_re_lu_48 (LeakyReLU)  (None, 64, 64, 128)       0         
                                                                 
 conv2d_19 (Conv2D)          (None, 64, 64, 3)         3459      
                                                                 
=================================================================
Total params: 3304579 (12.61 MB)
Trainable params: 3303043 (12.60 MB)
Non-trainable params: 1536 (6.00 KB)
_________________________________________________________________

2024-06-27 23:00:19,477 - dcgan_base - INFO - Model: "sequential_18"
_________________________________________________________________
 Layer (type)                Output Shape              Param #   
=================================================================
 dense_13 (Dense)            (None, 4096)              413696    
                                                                 
 leaky_re_lu_44 (LeakyReLU)  (None, 4096)              0         
                                                                 
 reshape_6 (Reshape)         (None, 4, 4, 256)         0         
                                                                 
 conv2d_transpose_25 (Conv2  (None, 8, 8, 256)         1048832   
 DTranspose)                                                     
                                                                 
 batch_normalization_29 (Ba  (None, 8, 8, 256)         1024      
 tchNormalization)                                               
                                                                 
 leaky_re_lu_45 (LeakyReLU)  (None, 8, 8, 256)         0         
                                                                 
 conv2d_transpose_26 (Conv2  (None, 16, 16, 256)       1048832   
 DTranspose)                                                     
                                                                 
 batch_normalization_30 (Ba  (None, 16, 16, 256)       1024      
 tchNormalization)                                               
                                                                 
 leaky_re_lu_46 (LeakyReLU)  (None, 16, 16, 256)       0         
                                                                 
 conv2d_transpose_27 (Conv2  (None, 32, 32, 128)       524416    
 DTranspose)                                                     
                                                                 
 batch_normalization_31 (Ba  (None, 32, 32, 128)       512       
 tchNormalization)                                               
                                                                 
 leaky_re_lu_47 (LeakyReLU)  (None, 32, 32, 128)       0         
                                                                 
 conv2d_transpose_28 (Conv2  (None, 64, 64, 128)       262272    
 DTranspose)                                                     
                                                                 
 batch_normalization_32 (Ba  (None, 64, 64, 128)       512       
 tchNormalization)                                               
                                                                 
 leaky_re_lu_48 (LeakyReLU)  (None, 64, 64, 128)       0         
                                                                 
 conv2d_19 (Conv2D)          (None, 64, 64, 3)         3459      
                                                                 
=================================================================
Total params: 3304579 (12.61 MB)
Trainable params: 3303043 (12.60 MB)
Non-trainable params: 1536 (6.00 KB)
_________________________________________________________________

2024-06-27 23:00:19,477 - dcgan_base - INFO - Model: "sequential_18"
_________________________________________________________________
 Layer (type)                Output Shape              Param #   
=================================================================
 dense_13 (Dense)            (None, 4096)              413696    
                                                                 
 leaky_re_lu_44 (LeakyReLU)  (None, 4096)              0         
                                                                 
 reshape_6 (Reshape)         (None, 4, 4, 256)         0         
                                                                 
 conv2d_transpose_25 (Conv2  (None, 8, 8, 256)         1048832   
 DTranspose)                                                     
                                                                 
 batch_normalization_29 (Ba  (None, 8, 8, 256)         1024      
 tchNormalization)                                               
                                                                 
 leaky_re_lu_45 (LeakyReLU)  (None, 8, 8, 256)         0         
                                                                 
 conv2d_transpose_26 (Conv2  (None, 16, 16, 256)       1048832   
 DTranspose)                                                     
                                                                 
 batch_normalization_30 (Ba  (None, 16, 16, 256)       1024      
 tchNormalization)                                               
                                                                 
 leaky_re_lu_46 (LeakyReLU)  (None, 16, 16, 256)       0         
                                                                 
 conv2d_transpose_27 (Conv2  (None, 32, 32, 128)       524416    
 DTranspose)                                                     
                                                                 
 batch_normalization_31 (Ba  (None, 32, 32, 128)       512       
 tchNormalization)                                               
                                                                 
 leaky_re_lu_47 (LeakyReLU)  (None, 32, 32, 128)       0         
                                                                 
 conv2d_transpose_28 (Conv2  (None, 64, 64, 128)       262272    
 DTranspose)                                                     
                                                                 
 batch_normalization_32 (Ba  (None, 64, 64, 128)       512       
 tchNormalization)                                               
                                                                 
 leaky_re_lu_48 (LeakyReLU)  (None, 64, 64, 128)       0         
                                                                 
 conv2d_19 (Conv2D)          (None, 64, 64, 3)         3459      
                                                                 
=================================================================
Total params: 3304579 (12.61 MB)
Trainable params: 3303043 (12.60 MB)
Non-trainable params: 1536 (6.00 KB)
_________________________________________________________________

2024-06-27 23:00:19,477 - dcgan_base - INFO - Model: "sequential_18"
_________________________________________________________________
 Layer (type)                Output Shape              Param #   
=================================================================
 dense_13 (Dense)            (None, 4096)              413696    
                                                                 
 leaky_re_lu_44 (LeakyReLU)  (None, 4096)              0         
                                                                 
 reshape_6 (Reshape)         (None, 4, 4, 256)         0         
                                                                 
 conv2d_transpose_25 (Conv2  (None, 8, 8, 256)         1048832   
 DTranspose)                                                     
                                                                 
 batch_normalization_29 (Ba  (None, 8, 8, 256)         1024      
 tchNormalization)                                               
                                                                 
 leaky_re_lu_45 (LeakyReLU)  (None, 8, 8, 256)         0         
                                                                 
 conv2d_transpose_26 (Conv2  (None, 16, 16, 256)       1048832   
 DTranspose)                                                     
                                                                 
 batch_normalization_30 (Ba  (None, 16, 16, 256)       1024      
 tchNormalization)                                               
                                                                 
 leaky_re_lu_46 (LeakyReLU)  (None, 16, 16, 256)       0         
                                                                 
 conv2d_transpose_27 (Conv2  (None, 32, 32, 128)       524416    
 DTranspose)                                                     
                                                                 
 batch_normalization_31 (Ba  (None, 32, 32, 128)       512       
 tchNormalization)                                               
                                                                 
 leaky_re_lu_47 (LeakyReLU)  (None, 32, 32, 128)       0         
                                                                 
 conv2d_transpose_28 (Conv2  (None, 64, 64, 128)       262272    
 DTranspose)                                                     
                                                                 
 batch_normalization_32 (Ba  (None, 64, 64, 128)       512       
 tchNormalization)                                               
                                                                 
 leaky_re_lu_48 (LeakyReLU)  (None, 64, 64, 128)       0         
                                                                 
 conv2d_19 (Conv2D)          (None, 64, 64, 3)         3459      
                                                                 
=================================================================
Total params: 3304579 (12.61 MB)
Trainable params: 3303043 (12.60 MB)
Non-trainable params: 1536 (6.00 KB)
_________________________________________________________________

2024-06-27 23:00:19,477 - dcgan_base - INFO - Model: "sequential_18"
_________________________________________________________________
 Layer (type)                Output Shape              Param #   
=================================================================
 dense_13 (Dense)            (None, 4096)              413696    
                                                                 
 leaky_re_lu_44 (LeakyReLU)  (None, 4096)              0         
                                                                 
 reshape_6 (Reshape)         (None, 4, 4, 256)         0         
                                                                 
 conv2d_transpose_25 (Conv2  (None, 8, 8, 256)         1048832   
 DTranspose)                                                     
                                                                 
 batch_normalization_29 (Ba  (None, 8, 8, 256)         1024      
 tchNormalization)                                               
                                                                 
 leaky_re_lu_45 (LeakyReLU)  (None, 8, 8, 256)         0         
                                                                 
 conv2d_transpose_26 (Conv2  (None, 16, 16, 256)       1048832   
 DTranspose)                                                     
                                                                 
…
                                                                 
 reshape_14 (Reshape)        (None, 4, 4, 256)         0         
                                                                 
 conv2d_transpose_55 (Conv2  (None, 8, 8, 256)         1048832   
 DTranspose)                                                     
                                                                 
 leaky_re_lu_99 (LeakyReLU)  (None, 8, 8, 256)         0         
                                                                 
 conv2d_transpose_56 (Conv2  (None, 16, 16, 256)       1048832   
 DTranspose)                                                     
                                                                 
 leaky_re_lu_100 (LeakyReLU  (None, 16, 16, 256)       0         
 )                                                               
                                                                 
 conv2d_transpose_57 (Conv2  (None, 32, 32, 128)       524416    
 DTranspose)                                                     
                                                                 
 leaky_re_lu_101 (LeakyReLU  (None, 32, 32, 128)       0         
 )                                                               
                                                                 
 conv2d_transpose_58 (Conv2  (None, 64, 64, 128)       262272    
 DTranspose)                                                     
                                                                 
 leaky_re_lu_102 (LeakyReLU  (None, 64, 64, 128)       0         
 )                                                               
                                                                 
 conv2d_42 (Conv2D)          (None, 64, 64, 3)         3459      
                                                                 
=================================================================
Total params: 3301507 (12.59 MB)
Trainable params: 3301507 (12.59 MB)
Non-trainable params: 0 (0.00 Byte)
_________________________________________________________________

2024-06-27 23:27:48,479 - dcgan_base - INFO - Model: "sequential_41"
_________________________________________________________________
 Layer (type)                Output Shape              Param #   
=================================================================
 dense_29 (Dense)            (None, 4096)              413696    
                                                                 
 leaky_re_lu_98 (LeakyReLU)  (None, 4096)              0         
                                                                 
 reshape_14 (Reshape)        (None, 4, 4, 256)         0         
                                                                 
 conv2d_transpose_55 (Conv2  (None, 8, 8, 256)         1048832   
 DTranspose)                                                     
                                                                 
 leaky_re_lu_99 (LeakyReLU)  (None, 8, 8, 256)         0         
                                                                 
 conv2d_transpose_56 (Conv2  (None, 16, 16, 256)       1048832   
 DTranspose)                                                     
                                                                 
 leaky_re_lu_100 (LeakyReLU  (None, 16, 16, 256)       0         
 )                                                               
                                                                 
 conv2d_transpose_57 (Conv2  (None, 32, 32, 128)       524416    
 DTranspose)                                                     
                                                                 
 leaky_re_lu_101 (LeakyReLU  (None, 32, 32, 128)       0         
 )                                                               
                                                                 
 conv2d_transpose_58 (Conv2  (None, 64, 64, 128)       262272    
 DTranspose)                                                     
                                                                 
 leaky_re_lu_102 (LeakyReLU  (None, 64, 64, 128)       0         
 )                                                               
                                                                 
 conv2d_42 (Conv2D)          (None, 64, 64, 3)         3459      
                                                                 
=================================================================
Total params: 3301507 (12.59 MB)
Trainable params: 3301507 (12.59 MB)
Non-trainable params: 0 (0.00 Byte)
_________________________________________________________________

2024-06-27 23:27:48,479 - dcgan_base - INFO - Model: "sequential_41"
_________________________________________________________________
 Layer (type)                Output Shape              Param #   
=================================================================
 dense_29 (Dense)            (None, 4096)              413696    
                                                                 
 leaky_re_lu_98 (LeakyReLU)  (None, 4096)              0         
                                                                 
 reshape_14 (Reshape)        (None, 4, 4, 256)         0         
                                                                 
 conv2d_transpose_55 (Conv2  (None, 8, 8, 256)         1048832   
 DTranspose)                                                     
                                                                 
 leaky_re_lu_99 (LeakyReLU)  (None, 8, 8, 256)         0         
                                                                 
 conv2d_transpose_56 (Conv2  (None, 16, 16, 256)       1048832   
 DTranspose)                                                     
                                                                 
 leaky_re_lu_100 (LeakyReLU  (None, 16, 16, 256)       0         
 )                                                               
                                                                 
 conv2d_transpose_57 (Conv2  (None, 32, 32, 128)       524416    
 DTranspose)                                                     
                                                                 
 leaky_re_lu_101 (LeakyReLU  (None, 32, 32, 128)       0         
 )                                                               
                                                                 
 conv2d_transpose_58 (Conv2  (None, 64, 64, 128)       262272    
 DTranspose)                                                     
                                                                 
 leaky_re_lu_102 (LeakyReLU  (None, 64, 64, 128)       0         
 )                                                               
                                                                 
 conv2d_42 (Conv2D)          (None, 64, 64, 3)         3459      
                                                                 
=================================================================
Total params: 3301507 (12.59 MB)
Trainable params: 3301507 (12.59 MB)
Non-trainable params: 0 (0.00 Byte)
_________________________________________________________________

2024-06-27 23:27:48,479 - dcgan_base - INFO - Model: "sequential_41"
_________________________________________________________________
 Layer (type)                Output Shape              Param #   
=================================================================
 dense_29 (Dense)            (None, 4096)              413696    
                                                                 
 leaky_re_lu_98 (LeakyReLU)  (None, 4096)              0         
                                                                 
 reshape_14 (Reshape)        (None, 4, 4, 256)         0         
                                                                 
 conv2d_transpose_55 (Conv2  (None, 8, 8, 256)         1048832   
 DTranspose)                                                     
                                                                 
 leaky_re_lu_99 (LeakyReLU)  (None, 8, 8, 256)         0         
                                                                 
 conv2d_transpose_56 (Conv2  (None, 16, 16, 256)       1048832   
 DTranspose)                                                     
                                                                 
 leaky_re_lu_100 (LeakyReLU  (None, 16, 16, 256)       0         
 )                                                               
                                                                 
 conv2d_transpose_57 (Conv2  (None, 32, 32, 128)       524416    
 DTranspose)                                                     
                                                                 
 leaky_re_lu_101 (LeakyReLU  (None, 32, 32, 128)       0         
 )                                                               
                                                                 
 conv2d_transpose_58 (Conv2  (None, 64, 64, 128)       262272    
 DTranspose)                                                     
                                                                 
 leaky_re_lu_102 (LeakyReLU  (None, 64, 64, 128)       0         
 )                                                               
                                                                 
 conv2d_42 (Conv2D)          (None, 64, 64, 3)         3459      
                                                                 
=================================================================
Total params: 3301507 (12.59 MB)
Trainable params: 3301507 (12.59 MB)
Non-trainable params: 0 (0.00 Byte)
_________________________________________________________________

2024-06-27 23:27:48,479 - dcgan_base - INFO - Model: "sequential_41"
_________________________________________________________________
 Layer (type)                Output Shape              Param #   
=================================================================
 dense_29 (Dense)            (None, 4096)              413696    
                                                                 
 leaky_re_lu_98 (LeakyReLU)  (None, 4096)              0         
                                                                 
 reshape_14 (Reshape)        (None, 4, 4, 256)         0         
                                                                 
 conv2d_transpose_55 (Conv2  (None, 8, 8, 256)         1048832   
 DTranspose)                                                     
                                                                 
 leaky_re_lu_99 (LeakyReLU)  (None, 8, 8, 256)         0         
                                                                 
 conv2d_transpose_56 (Conv2  (None, 16, 16, 256)       1048832   
 DTranspose)                                                     
                                                                 
 leaky_re_lu_100 (LeakyReLU  (None, 16, 16, 256)       0         
 )                                                               
                                                                 
 conv2d_transpose_57 (Conv2  (None, 32, 32, 128)       524416    
 DTranspose)                                                     
                                                                 
 leaky_re_lu_101 (LeakyReLU  (None, 32, 32, 128)       0         
 )                                                               
                                                                 
 conv2d_transpose_58 (Conv2  (None, 64, 64, 128)       262272    
 DTranspose)                                                     
                                                                 
 leaky_re_lu_102 (LeakyReLU  (None, 64, 64, 128)       0         
 )                                                               
                                                                 
 conv2d_42 (Conv2D)          (None, 64, 64, 3)         3459      
                                                                 
=================================================================
Total params: 3301507 (12.59 MB)
Trainable params: 3301507 (12.59 MB)
Non-trainable params: 0 (0.00 Byte)
_________________________________________________________________

2024-06-27 23:27:48,479 - dcgan_base - INFO - Model: "sequential_41"
_________________________________________________________________
 Layer (type)                Output Shape              Param #   
=================================================================
 dense_29 (Dense)            (None, 4096)              413696    
                                                                 
 leaky_re_lu_98 (LeakyReLU)  (None, 4096)              0         
                                                                 
 reshape_14 (Reshape)        (None, 4, 4, 256)         0         
                                                                 
 conv2d_transpose_55 (Conv2  (None, 8, 8, 256)         1048832   
 DTranspose)                                                     
                                                                 
 leaky_re_lu_99 (LeakyReLU)  (None, 8, 8, 256)         0         
                                                                 
 conv2d_transpose_56 (Conv2  (None, 16, 16, 256)       1048832   
 DTranspose)                                                     
                                                                 
 leaky_re_lu_100 (LeakyReLU  (None, 16, 16, 256)       0         
 )                                                               
                                                                 
 conv2d_transpose_57 (Conv2  (None, 32, 32, 128)       524416    
 DTranspose)                                                     
                                                                 
 leaky_re_lu_101 (LeakyReLU  (None, 32, 32, 128)       0         
 )                                                               
                                                                 
 conv2d_transpose_58 (Conv2  (None, 64, 64, 128)       262272    
 DTranspose)                                                     
                                                                 
 leaky_re_lu_102 (LeakyReLU  (None, 64, 64, 128)       0         
 )                                                               
                                                                 
 conv2d_42 (Conv2D)          (None, 64, 64, 3)         3459      
                                                                 
=================================================================
Total params: 3301507 (12.59 MB)
Trainable params: 3301507 (12.59 MB)
Non-trainable params: 0 (0.00 Byte)
_________________________________________________________________

2024-06-27 23:27:48,479 - dcgan_base - INFO - Model: "sequential_41"
_________________________________________________________________
 Layer (type)                Output Shape              Param #   
=================================================================
 dense_29 (Dense)            (None, 4096)              413696    
                                                                 
 leaky_re_lu_98 (LeakyReLU)  (None, 4096)              0         
                                                                 
 reshape_14 (Reshape)        (None, 4, 4, 256)         0         
                                                                 
 conv2d_transpose_55 (Conv2  (None, 8, 8, 256)         1048832   
 DTranspose)                                                     
                                                                 
 leaky_re_lu_99 (LeakyReLU)  (None, 8, 8, 256)         0         
                                                                 
 conv2d_transpose_56 (Conv2  (None, 16, 16, 256)       1048832   
 DTranspose)                                                     
                                                                 
 leaky_re_lu_100 (LeakyReLU  (None, 16, 16, 256)       0         
 )                                                               
                                                                 
 conv2d_transpose_57 (Conv2  (None, 32, 32, 128)       524416    
 DTranspose)                                                     
                                                                 
 leaky_re_lu_101 (LeakyReLU  (None, 32, 32, 128)       0         
 )                                                               
                                                                 
 conv2d_transpose_58 (Conv2  (None, 64, 64, 128)       262272    
 DTranspose)                                                     
                                                                 
 leaky_re_lu_102 (LeakyReLU  (None, 64, 64, 128)       0         
 )                                                               
                                                                 
 conv2d_42 (Conv2D)          (None, 64, 64, 3)         3459      
                                                                 
=================================================================
Total params: 3301507 (12.59 MB)
Trainable params: 3301507 (12.59 MB)
Non-trainable params: 0 (0.00 Byte)
_________________________________________________________________

2024-06-27 23:27:48,479 - dcgan_base - INFO - Model: "sequential_41"
_________________________________________________________________
 Layer (type)                Output Shape              Param #   
=================================================================
 dense_29 (Dense)            (None, 4096)              413696    
                                                                 
 leaky_re_lu_98 (LeakyReLU)  (None, 4096)              0         
                                                                 
 reshape_14 (Reshape)        (None, 4, 4, 256)         0         
                                                                 
 conv2d_transpose_55 (Conv2  (None, 8, 8, 256)         1048832   
 DTranspose)                                                     
                                                                 
 leaky_re_lu_99 (LeakyReLU)  (None, 8, 8, 256)         0         
                                                                 
 conv2d_transpose_56 (Conv2  (None, 16, 16, 256)       1048832   
 DTranspose)                                                     
                                                                 
 leaky_re_lu_100 (LeakyReLU  (None, 16, 16, 256)       0         
 )                                                               
                                                                 
 conv2d_transpose_57 (Conv2  (None, 32, 32, 128)       524416    
 DTranspose)                                                     
                                                                 
 leaky_re_lu_101 (LeakyReLU  (None, 32, 32, 128)       0         
 )                                                               
                                                                 
 conv2d_transpose_58 (Conv2  (None, 64, 64, 128)       262272    
 DTranspose)                                                     
                                                                 
 leaky_re_lu_102 (LeakyReLU  (None, 64, 64, 128)       0         
 )                                                               
                                                                 
 conv2d_42 (Conv2D)          (None, 64, 64, 3)         3459      
                                                                 
=================================================================
Total params: 3301507 (12.59 MB)
Trainable params: 3301507 (12.59 MB)
Non-trainable params: 0 (0.00 Byte)
_________________________________________________________________

2024-06-27 23:27:48,479 - dcgan_base - INFO - Model: "sequential_41"
_________________________________________________________________
 Layer (type)                Output Shape              Param #   
=================================================================
 dense_29 (Dense)            (None, 4096)              413696    
                                                                 
 leaky_re_lu_98 (LeakyReLU)  (None, 4096)              0         
                                                                 
 reshape_14 (Reshape)        (None, 4, 4, 256)         0         
                                                                 
 conv2d_transpose_55 (Conv2  (None, 8, 8, 256)         1048832   
 DTranspose)                                                     
                                                                 
 leaky_re_lu_99 (LeakyReLU)  (None, 8, 8, 256)         0         
                                                                 
 conv2d_transpose_56 (Conv2  (None, 16, 16, 256)       1048832   
 DTranspose)                                                     
                                                                 
 leaky_re_lu_100 (LeakyReLU  (None, 16, 16, 256)       0         
 )                                                               
                                                                 
 conv2d_transpose_57 (Conv2  (None, 32, 32, 128)       524416    
 DTranspose)                                                     
                                                                 
 leaky_re_lu_101 (LeakyReLU  (None, 32, 32, 128)       0         
 )                                                               
                                                                 
 conv2d_transpose_58 (Conv2  (None, 64, 64, 128)       262272    
 DTranspose)                                                     
                                                                 
 leaky_re_lu_102 (LeakyReLU  (None, 64, 64, 128)       0         
 )                                                               
                                                                 
 conv2d_42 (Conv2D)          (None, 64, 64, 3)         3459      
                                                                 
=================================================================
Total params: 3301507 (12.59 MB)
Trainable params: 3301507 (12.59 MB)
Non-trainable params: 0 (0.00 Byte)
_________________________________________________________________

2024-06-27 23:27:48,479 - dcgan_base - INFO - Model: "sequential_41"
_________________________________________________________________
 Layer (type)                Output Shape              Param #   
=================================================================
 dense_29 (Dense)            (None, 4096)              413696    
                                                                 
 leaky_re_lu_98 (LeakyReLU)  (None, 4096)              0         
                                                                 
 reshape_14 (Reshape)        (None, 4, 4, 256)         0         
                                                                 
 conv2d_transpose_55 (Conv2  (None, 8, 8, 256)         1048832   
 DTranspose)                                                     
                                                                 
 leaky_re_lu_99 (LeakyReLU)  (None, 8, 8, 256)         0         
                                                                 
 conv2d_transpose_56 (Conv2  (None, 16, 16, 256)       1048832   
 DTranspose)                                                     
                                                                 
 leaky_re_lu_100 (LeakyReLU  (None, 16, 16, 256)       0         
 )                                                               
                                                                 
 conv2d_transpose_57 (Conv2  (None, 32, 32, 128)       524416    
 DTranspose)                                                     
                                                                 
 leaky_re_lu_101 (LeakyReLU  (None, 32, 32, 128)       0         
 )                                                               
                                                                 
 conv2d_transpose_58 (Conv2  (None, 64, 64, 128)       262272    
 DTranspose)                                                     
                                                                 
 leaky_re_lu_102 (LeakyReLU  (None, 64, 64, 128)       0         
 )                                                               
                                                                 
 conv2d_42 (Conv2D)          (None, 64, 64, 3)         3459      
                                                                 
=================================================================
Total params: 3301507 (12.59 MB)
Trainable params: 3301507 (12.59 MB)
Non-trainable params: 0 (0.00 Byte)
_________________________________________________________________

2024-06-27 23:27:48,479 - dcgan_base - INFO - Model: "sequential_41"
_________________________________________________________________
 Layer (type)                Output Shape              Param #   
=================================================================
 dense_29 (Dense)            (None, 4096)              413696    
                                                                 
 leaky_re_lu_98 (LeakyReLU)  (None, 4096)              0         
                                                                 
 reshape_14 (Reshape)        (None, 4, 4, 256)         0         
                                                                 
 conv2d_transpose_55 (Conv2  (None, 8, 8, 256)         1048832   
 DTranspose)                                                     
                                                                 
 leaky_re_lu_99 (LeakyReLU)  (None, 8, 8, 256)         0         
                                                                 
 conv2d_transpose_56 (Conv2  (None, 16, 16, 256)       1048832   
 DTranspose)                                                     
                                                                 
 leaky_re_lu_100 (LeakyReLU  (None, 16, 16, 256)       0         
 )                                                               
                                                                 
 conv2d_transpose_57 (Conv2  (None, 32, 32, 128)       524416    
 DTranspose)                                                     
                                                                 
 leaky_re_lu_101 (LeakyReLU  (None, 32, 32, 128)       0         
 )                                                               
                                                                 
 conv2d_transpose_58 (Conv2  (None, 64, 64, 128)       262272    
 DTranspose)                                                     
                                                                 
 leaky_re_lu_102 (LeakyReLU  (None, 64, 64, 128)       0         
 )                                                               
                                                                 
 conv2d_42 (Conv2D)          (None, 64, 64, 3)         3459      
                                                                 
=================================================================
Total params: 3301507 (12.59 MB)
Trainable params: 3301507 (12.59 MB)
Non-trainable params: 0 (0.00 Byte)
_________________________________________________________________

2024-06-27 23:27:48,479 - dcgan_base - INFO - Model: "sequential_41"
_________________________________________________________________
 Layer (type)                Output Shape              Param #   
=================================================================
 dense_29 (Dense)            (None, 4096)              413696    
                                                                 
 leaky_re_lu_98 (LeakyReLU)  (None, 4096)              0         
                                                                 
 reshape_14 (Reshape)        (None, 4, 4, 256)         0         
                                                                 
 conv2d_transpose_55 (Conv2  (None, 8, 8, 256)         1048832   
 DTranspose)                                                     
                                                                 
 leaky_re_lu_99 (LeakyReLU)  (None, 8, 8, 256)         0         
                                                                 
 conv2d_transpose_56 (Conv2  (None, 16, 16, 256)       1048832   
 DTranspose)                                                     
                                                                 
 leaky_re_lu_100 (LeakyReLU  (None, 16, 16, 256)       0         
 )                                                               
                                                                 
 conv2d_transpose_57 (Conv2  (None, 32, 32, 128)       524416    
 DTranspose)                                                     
                                                                 
 leaky_re_lu_101 (LeakyReLU  (None, 32, 32, 128)       0         
 )                                                               
                                                                 
 conv2d_transpose_58 (Conv2  (None, 64, 64, 128)       262272    
 DTranspose)                                                     
                                                                 
 leaky_re_lu_102 (LeakyReLU  (None, 64, 64, 128)       0         
 )                                                               
                                                                 
 conv2d_42 (Conv2D)          (None, 64, 64, 3)         3459      
                                                                 
=================================================================
Total params: 3301507 (12.59 MB)
Trainable params: 3301507 (12.59 MB)
Non-trainable params: 0 (0.00 Byte)
_________________________________________________________________

2024-06-27 23:27:48,479 - dcgan_base - INFO - Model: "sequential_41"
_________________________________________________________________
 Layer (type)                Output Shape              Param #   
=================================================================
 dense_29 (Dense)            (None, 4096)              413696    
                                                                 
 leaky_re_lu_98 (LeakyReLU)  (None, 4096)              0         
                                                                 
 reshape_14 (Reshape)        (None, 4, 4, 256)         0         
                                                                 
 conv2d_transpose_55 (Conv2  (None, 8, 8, 256)         1048832   
 DTranspose)                                                     
                                                                 
 leaky_re_lu_99 (LeakyReLU)  (None, 8, 8, 256)         0         
                                                                 
 conv2d_transpose_56 (Conv2  (None, 16, 16, 256)       1048832   
 DTranspose)                                                     
                                                                 
 leaky_re_lu_100 (LeakyReLU  (None, 16, 16, 256)       0         
 )                                                               
                                                                 
 conv2d_transpose_57 (Conv2  (None, 32, 32, 128)       524416    
 DTranspose)                                                     
                                                                 
 leaky_re_lu_101 (LeakyReLU  (None, 32, 32, 128)       0         
 )                                                               
                                                                 
 conv2d_transpose_58 (Conv2  (None, 64, 64, 128)       262272    
 DTranspose)                                                     
                                                                 
 leaky_re_lu_102 (LeakyReLU  (None, 64, 64, 128)       0         
 )                                                               
                                                                 
 conv2d_42 (Conv2D)          (None, 64, 64, 3)         3459      
                                                                 
=================================================================
Total params: 3301507 (12.59 MB)
Trainable params: 3301507 (12.59 MB)
Non-trainable params: 0 (0.00 Byte)
_________________________________________________________________

2024-06-27 23:27:48,479 - dcgan_base - INFO - Model: "sequential_41"
_________________________________________________________________
 Layer (type)                Output Shape              Param #   
=================================================================
 dense_29 (Dense)            (None, 4096)              413696    
                                                                 
 leaky_re_lu_98 (LeakyReLU)  (None, 4096)              0         
                                                                 
 reshape_14 (Reshape)        (None, 4, 4, 256)         0         
                                                                 
 conv2d_transpose_55 (Conv2  (None, 8, 8, 256)         1048832   
 DTranspose)                                                     
                                                                 
 leaky_re_lu_99 (LeakyReLU)  (None, 8, 8, 256)         0         
                                                                 
 conv2d_transpose_56 (Conv2  (None, 16, 16, 256)       1048832   
 DTranspose)                                                     
                                                                 
 leaky_re_lu_100 (LeakyReLU  (None, 16, 16, 256)       0         
 )                                                               
                                                                 
 conv2d_transpose_57 (Conv2  (None, 32, 32, 128)       524416    
 DTranspose)                                                     
                                                                 
 leaky_re_lu_101 (LeakyReLU  (None, 32, 32, 128)       0         
 )                                                               
                                                                 
 conv2d_transpose_58 (Conv2  (None, 64, 64, 128)       262272    
 DTranspose)                                                     
                                                                 
 leaky_re_lu_102 (LeakyReLU  (None, 64, 64, 128)       0         
 )                                                               
                                                                 
 conv2d_42 (Conv2D)          (None, 64, 64, 3)         3459      
                                                                 
=================================================================
Total params: 3301507 (12.59 MB)
Trainable params: 3301507 (12.59 MB)
Non-trainable params: 0 (0.00 Byte)
_________________________________________________________________

2024-06-27 23:27:48,479 - dcgan_base - INFO - Model: "sequential_41"
_________________________________________________________________
 Layer (type)                Output Shape              Param #   
=================================================================
 dense_29 (Dense)            (None, 4096)              413696    
                                                                 
 leaky_re_lu_98 (LeakyReLU)  (None, 4096)              0         
                                                                 
 reshape_14 (Reshape)        (None, 4, 4, 256)         0         
                                                                 
 conv2d_transpose_55 (Conv2  (None, 8, 8, 256)         1048832   
 DTranspose)                                                     
                                                                 
 leaky_re_lu_99 (LeakyReLU)  (None, 8, 8, 256)         0         
                                                                 
 conv2d_transpose_56 (Conv2  (None, 16, 16, 256)       1048832   
 DTranspose)                                                     
                                                                 
 leaky_re_lu_100 (LeakyReLU  (None, 16, 16, 256)       0         
 )                                                               
                                                                 
 conv2d_transpose_57 (Conv2  (None, 32, 32, 128)       524416    
 DTranspose)                                                     
                                                                 
 leaky_re_lu_101 (LeakyReLU  (None, 32, 32, 128)       0         
 )                                                               
                                                                 
 conv2d_transpose_58 (Conv2  (None, 64, 64, 128)       262272    
 DTranspose)                                                     
                                                                 
 leaky_re_lu_102 (LeakyReLU  (None, 64, 64, 128)       0         
 )                                                               
                                                                 
 conv2d_42 (Conv2D)          (None, 64, 64, 3)         3459      
                                                                 
=================================================================
Total params: 3301507 (12.59 MB)
Trainable params: 3301507 (12.59 MB)
Non-trainable params: 0 (0.00 Byte)
_________________________________________________________________

2024-06-27 23:27:48,501 - dcgan_base - INFO - ------------------------------------------------------------
…
2024-06-27 23:27:48,633 - dcgan_base - INFO - GAN created
2024-06-27 23:27:48,633 - dcgan_base - INFO - GAN created
2024-06-27 23:27:48,633 - dcgan_base - INFO - GAN created
2024-06-27 23:27:48,633 - dcgan_base - INFO - GAN created
2024-06-27 23:27:48,633 - dcgan_base - INFO - GAN created
2024-06-27 23:27:48,633 - dcgan_base - INFO - GAN created
2024-06-27 23:27:48,656 - dcgan_base - INFO - Model: "sequential_42"
_________________________________________________________________
 Layer (type)                Output Shape              Param #   
=================================================================
 sequential_41 (Sequential)  (None, 64, 64, 3)         3301507   
                                                                 
 sequential_40 (Sequential)  (None, 1)                 108417    
                                                                 
=================================================================
Total params: 3409924 (13.01 MB)
Trainable params: 3301507 (12.59 MB)
Non-trainable params: 108417 (423.50 KB)
_________________________________________________________________

2024-06-27 23:27:48,656 - dcgan_base - INFO - Model: "sequential_42"
_________________________________________________________________
 Layer (type)                Output Shape              Param #   
=================================================================
 sequential_41 (Sequential)  (None, 64, 64, 3)         3301507   
                                                                 
 sequential_40 (Sequential)  (None, 1)                 108417    
                                                                 
=================================================================
Total params: 3409924 (13.01 MB)
Trainable params: 3301507 (12.59 MB)
Non-trainable params: 108417 (423.50 KB)
_________________________________________________________________

2024-06-27 23:27:48,656 - dcgan_base - INFO - Model: "sequential_42"
_________________________________________________________________
 Layer (type)                Output Shape              Param #   
=================================================================
 sequential_41 (Sequential)  (None, 64, 64, 3)         3301507   
                                                                 
 sequential_40 (Sequential)  (None, 1)                 108417    
                                                                 
=================================================================
Total params: 3409924 (13.01 MB)
Trainable params: 3301507 (12.59 MB)
Non-trainable params: 108417 (423.50 KB)
_________________________________________________________________

2024-06-27 23:27:48,656 - dcgan_base - INFO - Model: "sequential_42"
_________________________________________________________________
 Layer (type)                Output Shape              Param #   
=================================================================
 sequential_41 (Sequential)  (None, 64, 64, 3)         3301507   
                                                                 
 sequential_40 (Sequential)  (None, 1)                 108417    
                                                                 
=================================================================
Total params: 3409924 (13.01 MB)
Trainable params: 3301507 (12.59 MB)
Non-trainable params: 108417 (423.50 KB)
_________________________________________________________________

2024-06-27 23:27:48,656 - dcgan_base - INFO - Model: "sequential_42"
_________________________________________________________________
 Layer (type)                Output Shape              Param #   
=================================================================
 sequential_41 (Sequential)  (None, 64, 64, 3)         3301507   
                                                                 
 sequential_40 (Sequential)  (None, 1)                 108417    
                                                                 
=================================================================
Total params: 3409924 (13.01 MB)
Trainable params: 3301507 (12.59 MB)
Non-trainable params: 108417 (423.50 KB)
_________________________________________________________________

2024-06-27 23:27:48,656 - dcgan_base - INFO - Model: "sequential_42"
_________________________________________________________________
 Layer (type)                Output Shape              Param #   
=================================================================
 sequential_41 (Sequential)  (None, 64, 64, 3)         3301507   
                                                                 
 sequential_40 (Sequential)  (None, 1)                 108417    
                                                                 
=================================================================
Total params: 3409924 (13.01 MB)
Trainable params: 3301507 (12.59 MB)
Non-trainable params: 108417 (423.50 KB)
_________________________________________________________________

2024-06-27 23:27:48,656 - dcgan_base - INFO - Model: "sequential_42"
_________________________________________________________________
 Layer (type)                Output Shape              Param #   
=================================================================
 sequential_41 (Sequential)  (None, 64, 64, 3)         3301507   
                                                                 
 sequential_40 (Sequential)  (None, 1)                 108417    
                                                                 
=================================================================
Total params: 3409924 (13.01 MB)
Trainable params: 3301507 (12.59 MB)
Non-trainable params: 108417 (423.50 KB)
_________________________________________________________________

2024-06-27 23:27:48,656 - dcgan_base - INFO - Model: "sequential_42"
_________________________________________________________________
 Layer (type)                Output Shape              Param #   
=================================================================
 sequential_41 (Sequential)  (None, 64, 64, 3)         3301507   
                                                                 
 sequential_40 (Sequential)  (None, 1)                 108417    
                                                                 
=================================================================
Total params: 3409924 (13.01 MB)
Trainable params: 3301507 (12.59 MB)
Non-trainable params: 108417 (423.50 KB)
_________________________________________________________________

2024-06-27 23:27:48,656 - dcgan_base - INFO - Model: "sequential_42"
_________________________________________________________________
 Layer (type)                Output Shape              Param #   
=================================================================
 sequential_41 (Sequential)  (None, 64, 64, 3)         3301507   
                                                                 
 sequential_40 (Sequential)  (None, 1)                 108417    
                                                                 
=================================================================
Total params: 3409924 (13.01 MB)
Trainable params: 3301507 (12.59 MB)
Non-trainable params: 108417 (423.50 KB)
_________________________________________________________________

2024-06-27 23:27:48,656 - dcgan_base - INFO - Model: "sequential_42"
_________________________________________________________________
 Layer (type)                Output Shape              Param #   
=================================================================
 sequential_41 (Sequential)  (None, 64, 64, 3)         3301507   
                                                                 
 sequential_40 (Sequential)  (None, 1)                 108417    
                                                                 
=================================================================
Total params: 3409924 (13.01 MB)
Trainable params: 3301507 (12.59 MB)
Non-trainable params: 108417 (423.50 KB)
_________________________________________________________________

2024-06-27 23:27:48,656 - dcgan_base - INFO - Model: "sequential_42"
_________________________________________________________________
 Layer (type)                Output Shape              Param #   
=================================================================
 sequential_41 (Sequential)  (None, 64, 64, 3)         3301507   
                                                                 
 sequential_40 (Sequential)  (None, 1)                 108417    
                                                                 
=================================================================
Total params: 3409924 (13.01 MB)
Trainable params: 3301507 (12.59 MB)
Non-trainable params: 108417 (423.50 KB)
_________________________________________________________________

2024-06-27 23:27:48,656 - dcgan_base - INFO - Model: "sequential_42"
_________________________________________________________________
 Layer (type)                Output Shape              Param #   
=================================================================
 sequential_41 (Sequential)  (None, 64, 64, 3)         3301507   
                                                                 
 sequential_40 (Sequential)  (None, 1)                 108417    
                                                                 
=================================================================
Total params: 3409924 (13.01 MB)
Trainable params: 3301507 (12.59 MB)
Non-trainable params: 108417 (423.50 KB)
_________________________________________________________________

2024-06-27 23:27:48,656 - dcgan_base - INFO - Model: "sequential_42"
_________________________________________________________________
 Layer (type)                Output Shape              Param #   
=================================================================
 sequential_41 (Sequential)  (None, 64, 64, 3)         3301507   
                                                                 
 sequential_40 (Sequential)  (None, 1)                 108417    
                                                                 
=================================================================
Total params: 3409924 (13.01 MB)
Trainable params: 3301507 (12.59 MB)
Non-trainable params: 108417 (423.50 KB)
_________________________________________________________________

2024-06-27 23:27:48,656 - dcgan_base - INFO - Model: "sequential_42"
_________________________________________________________________
 Layer (type)                Output Shape              Param #   
=================================================================
 sequential_41 (Sequential)  (None, 64, 64, 3)         3301507   
                                                                 
 sequential_40 (Sequential)  (None, 1)                 108417    
                                                                 
=================================================================
Total params: 3409924 (13.01 MB)
Trainable params: 3301507 (12.59 MB)
Non-trainable params: 108417 (423.50 KB)
_________________________________________________________________

2024-06-27 23:27:48,656 - dcgan_base - INFO - Model: "sequential_42"
_________________________________________________________________
 Layer (type)                Output Shape              Param #   
=================================================================
 sequential_41 (Sequential)  (None, 64, 64, 3)         3301507   
                                                                 
 sequential_40 (Sequential)  (None, 1)                 108417    
                                                                 
=================================================================
Total params: 3409924 (13.01 MB)
Trainable params: 3301507 (12.59 MB)
Non-trainable params: 108417 (423.50 KB)
_________________________________________________________________

2024-06-27 23:27:48,681 - dcgan_base - INFO - ------------------------------------------------------------
…
