2024-06-26 22:14:17,837 - dcgan_base - INFO - Program started
2024-06-26 22:14:17,844 - dcgan_base - INFO - ------------------------------------------------------------
2024-06-26 22:14:17,906 - dcgan_base - INFO - Discriminator created
2024-06-26 22:14:17,912 - dcgan_base - INFO - Model: "sequential_56"
_________________________________________________________________
 Layer (type)                Output Shape              Param #   
=================================================================
 conv2d_59 (Conv2D)          (None, 14, 14, 64)        640       
                                                                 
 leaky_re_lu_97 (LeakyReLU)  (None, 14, 14, 64)        0         
                                                                 
 dropout_40 (Dropout)        (None, 14, 14, 64)        0         
                                                                 
 conv2d_60 (Conv2D)          (None, 7, 7, 64)          36928     
                                                                 
 leaky_re_lu_98 (LeakyReLU)  (None, 7, 7, 64)          0         
                                                                 
 dropout_41 (Dropout)        (None, 7, 7, 64)          0         
                                                                 
 flatten_20 (Flatten)        (None, 3136)              0         
                                                                 
 dense_39 (Dense)            (None, 1)                 3137      
                                                                 
=================================================================
Total params: 40705 (159.00 KB)
Trainable params: 40705 (159.00 KB)
Non-trainable params: 0 (0.00 Byte)
_________________________________________________________________

2024-06-26 22:14:17,921 - dcgan_base - INFO - ------------------------------------------------------------
2024-06-26 22:14:18,000 - dcgan_base - INFO - Generator created
2024-06-26 22:14:18,008 - dcgan_base - INFO - Model: "sequential_57"
_________________________________________________________________
 Layer (type)                Output Shape              Param #   
=================================================================
 dense_40 (Dense)            (None, 6272)              633472    
                                                                 
 leaky_re_lu_99 (LeakyReLU)  (None, 6272)              0         
                                                                 
 reshape_19 (Reshape)        (None, 7, 7, 128)         0         
                                                                 
 conv2d_transpose_38 (Conv2  (None, 14, 14, 128)       262272    
 DTranspose)                                                     
                                                                 
 leaky_re_lu_100 (LeakyReLU  (None, 14, 14, 128)       0         
 )                                                               
                                                                 
 conv2d_transpose_39 (Conv2  (None, 28, 28, 128)       262272    
 DTranspose)                                                     
                                                                 
 leaky_re_lu_101 (LeakyReLU  (None, 28, 28, 128)       0         
 )                                                               
                                                                 
 conv2d_61 (Conv2D)          (None, 28, 28, 1)         6273      
                                                                 
=================================================================
Total params: 1164289 (4.44 MB)
Trainable params: 1164289 (4.44 MB)
Non-trainable params: 0 (0.00 Byte)
_________________________________________________________________

2024-06-26 22:14:18,014 - dcgan_base - INFO - ------------------------------------------------------------
2024-06-26 22:14:18,088 - dcgan_base - INFO - GAN created
2024-06-26 22:14:18,095 - dcgan_base - INFO - Model: "sequential_58"
_________________________________________________________________
 Layer (type)                Output Shape              Param #   
=================================================================
 sequential_57 (Sequential)  (None, 28, 28, 1)         1164289   
                                                                 
 sequential_56 (Sequential)  (None, 1)                 40705     
                                                                 
=================================================================
Total params: 1204994 (4.60 MB)
Trainable params: 1164289 (4.44 MB)
Non-trainable params: 40705 (159.00 KB)
_________________________________________________________________

2024-06-26 22:14:18,100 - dcgan_base - INFO - ------------------------------------------------------------
…
